cnn.model (npz, 232821 bytes, 6 tensors)

predictor/l1/W f4 [10, 1024]
000000 1e 83 99 3d 3b 2a a4 bd c3 4e e0 3d b2 3b 89 bd
       0.07495712 -0.08015867 0.109525226 -0.06700839
000010 43 20 a8 bb 34 a9 08 bd 9c 03 69 3b b4 d5 e1 bc
       -0.005130799 -0.03336449 0.003555513 -0.027567722
000020 8b e6 91 3d 55 fc 7a bb 43 a2 8a 3d eb 44 95 bc
       0.07124051 -0.0038297374 0.0676923 -0.01822134
000030 5d 29 a0 bb 15 5e 2d 3d d7 d8 89 bd 80 9e 56 bb
       -0.0048877434 0.04232605 -0.06730812 -0.0032748282
000040 88 31 32 bd 19 05 8c bd 26 bd 8e 3c dd 6c 8f bc
       -0.043504268 -0.0683691 0.017424177 -0.017507965
000050 ba 46 be bb 10 dd fc b9 a6 75 d0 3b d8 fa af bd
       -0.005806771 -0.0004822989 0.006361681 -0.085927665
000060 ef be f4 bd 0d 72 b4 bd 63 8c 69 3c de 51 d2 3c
       -0.1195048 -0.08810816 0.014254662 0.025673803
000070 21 f5 bb 3c e3 c9 17 3d 87 53 b1 3c 11 14 96 3d
       0.022944035 0.03705777 0.021646274 0.07328046
000080 25 c6 9c bd 8f 84 ad bc e6 f5 d0 bb df 33 da 3d
       -0.076549806 -0.021181373 -0.0063769696 0.10654425
000090 fa e7 33 be 50 83 62 3b 95 54 f2 bb b5 bd f1 3c
       -0.17568961 0.0034563132 -0.007395337 0.029509405
0000a0 ad 11 c2 bc 3d 86 c3 bd a0 3e 14 3d 44 2e 78 3d
       -0.02369007 -0.09547088 0.036192536 0.060590997
0000b0 87 58 38 3d 8a 99 d4 bc f0 55 8e 3c 93 1f 71 3d
       0.0450063 -0.02595212 0.017374963 0.058868002
0000c0 ba cb eb bd 42 7b 88 bd 12 ea 45 bd be ad 94 ba
       -0.11513467 -0.066641346 -0.04831893 -0.0011343283
0000d0 5f 2e 0d 3c b9 a2 85 3d 1d 4a e0 3d aa 4f af bc
       0.008617013 0.065251775 0.10951636 -0.021400291
0000e0 d8 e5 aa 3d 19 4c 8a 3c 3a 15 a2 3b 17 e8 f8 bc
       0.083446205 0.01688199 0.004946378 -0.030384107
0000f0 e1 03 b5 3c 25 08 06 bc e4 74 51 bb 9a 28 07 be
       0.022096576 -0.008180653 -0.0031960541 -0.13199082
000100 38 2c 35 bd 81 63 d4 3b f9 6b bb bc 58 54 1f 3d
       -0.044231623 0.0064815884 -0.022878634 0.038898796
000110 39 7d e2 bc 3b 5f 2a bc 34 d4 14 bd 26 d2 09 3d
       -0.027647601 -0.010398681 -0.036335185 0.03364768
000120 b0 4b a1 3c 6a d6 02 bd 6c c3 ac bd ea 31 bc 3c
       0.01968941 -0.031942762 -0.08435711 0.02297302
000130 2c 4d 21 bc 37 7c 2f bd 43 1d 14 bd 5e b0 c2 3d
       -0.009845059 -0.04284307 -0.03616072 0.095062956
000140 90 fc 5b bd f2 6e 26 3d 2f f8 32 3d 05 05 dd bc
       -0.05370766 0.04063315 0.043693718 -0.026979933
000150 f8 0a 0c 3d c7 5c c8 3c f8 48 9f bc 34 6b f0 3c
       0.034190148 0.024458302 -0.019443974 0.029347993
000160 cf 1e cc 3c 0e f8 65 bd 20 de b7 3b ce 94 15 3c
       0.024917034 -0.056144767 0.005611196 0.009129716
000170 7d 76 1c bc fc 7a 16 be f9 94 5c bd 0f f4 2b 3d
       -0.009549734 -0.14695352 -0.05385301 0.0419808
000180 39 a7 00 bd 89 3c dd bc 32 43 6d bd 82 d4 7d 3d
       -0.031409476 -0.027006404 -0.05792541 0.06197024
000190 a3 36 84 3d 44 a1 1c bd f5 40 b2 bd e2 2a 95 3d
       0.064557336 -0.038239732 -0.08703796 0.0728357
0001a0 ef fd 04 3d 54 2b 22 bd 44 ea a9 bc cb 58 02 be
       0.032468732 -0.039592102 -0.02074159 -0.12729184
0001b0 6f 23 bd 3c c1 5e 72 3d 02 c7 3e 3c c9 b2 f6 bd
       0.023088185 0.059172396 0.011644127 -0.12045819
0001c0 ab c3 0b bd fd f9 ee bd 9d 2c 8f bc 2b d9 09 3c
       -0.03412215 -0.11668775 -0.017477328 0.008413593
0001d0 d7 83 41 3d f9 90 7b bc 29 88 19 3d 71 32 7f 3d
       0.047244873 -0.015354388 0.037483368 0.062303964
0001e0 48 49 17 3d c0 23 b2 3d 60 99 6c bc 61 14 d3 bc
       0.03693512 0.08698225 -0.014440864 -0.025766553
0001f0 b3 cc 91 bb 42 f8 e5 bc fc 9f 88 3c 78 ee bd bc
       -0.004449451 -0.02807248 0.016677849 -0.023185
000200 63 d8 62 bd 93 5b 03 bd 10 1d 5f bd 2f df 81 bd
       -0.055382144 -0.032069754 -0.054471076 -0.06341397
000210 32 ac 8b bd 68 f7 0b bc 6e 5e 24 3d fe f5 0c ba
       -0.06819953 -0.008542873 0.040129118 -0.0005377232
000220 e8 28 6f bd fb d3 cd 3d 18 c7 0c 3d 49 da 6f 3d
       -0.05838862 0.10050198 0.034369558 0.058557782
000230 16 d4 53 bd 8f 5d 5d 3d 26 37 a8 bc ee 04 1f 3c
       -0.051715933 0.054044303 -0.02053411 0.009705765
000240 a6 f3 89 bd 11 74 c8 3d b3 3a 01 3e c5 d7 19 be
       -0.067359254 0.09787763 0.12620048 -0.15023716
000250 41 49 5d bd 21 56 be bc b6 53 9f 3b 4d 7f 93 bd
       -0.05402494 -0.023234429 0.004862274 -0.07202015
000260 f7 85 10 be b5 7e b3 bd 92 fd ae bd 94 9e 36 bd
       -0.14113604 -0.08764402 -0.085444584 -0.044584826
000270 07 34 ea bd 5d c5 1a bd 98 70 82 3b 5a c8 79 3d
       -0.11435705 -0.037785877 0.0039807074 0.060982086
000280 5b 68 51 3b 32 4e 82 3c 38 ca 58 bd 97 5d e7 bd
       0.003195307 0.015906427 -0.052927226 -0.11297148
000290 7d 28 49 3c 07 da 44 3d 44 42 ed bd c9 0c 72 bd
       0.01227772 0.04805949 -0.11584905 -0.059094224
0002a0 16 e0 8d 3d d0 87 16 3d c0 ec ea bd 1e 9e e8 ba
       0.069275066 0.036750615 -0.11470938 -0.0017747318
0002b0 80 39 c2 3d f6 f4 1e be 63 45 3e be 7b 29 ab bd
       0.094836235 -0.15523133 -0.18581156 -0.08357521
0002c0 da 02 92 3c 49 60 bc 3c 15 de 77 bd 44 16 86 3d
       0.017823625 0.022995131 -0.06051453 0.065472156
0002d0 82 f5 8c bb 43 53 96 bc 1d aa 18 3d 09 ca 52 3d
       -0.0043017277 -0.01835025 0.037271608 0.051462207
0002e0 79 d1 02 bd 39 c6 5e bd e2 03 cd 3c 11 ed 6a 3d
       -0.03193805 -0.05438826 0.025026266 0.05735499
0002f0 00 19 4d 3d 81 4a 91 3d a5 65 ad bc 45 ab 0c bd
       0.05007267 0.070942886 -0.021166632 -0.034343023
000300 4f 0e a6 bb a4 c5 d0 3c 66 b3 f6 3c 53 d7 6e 3c
       -0.0050676237 0.025484867 0.03011484 0.0145777045
000310 84 8e 06 bd 75 60 11 bd 96 60 d0 bc b9 5c 12 bd
       -0.032850757 -0.03549238 -0.02543668 -0.03573296
000320 e2 23 2a 3d 02 44 84 3d 88 58 4b bd 77 eb 96 bd
       0.041538127 0.06458284 -0.049644977 -0.0736913
000330 0e ae 1c 3d 4d 57 89 3d 1e 19 48 bd d5 ad 0b bd
       0.03825193 0.067061044 -0.04885208 -0.034101326
000340 8b 27 36 bc 5f d9 ea bd 90 13 de bd e5 00 fc bd
       -0.011117826 -0.114672415 -0.10843575 -0.12304858
000350 e9 38 07 be 74 60 88 bc b7 a2 96 bd 13 96 e5 bc
       -0.13205303 -0.016647555 -0.07355254 -0.028025663
000360 44 88 0d be 71 a8 a5 bb 75 4e de bd a0 c0 8b bc
       -0.13821512 -0.00505548 -0.10854808 -0.017059624
000370 a9 86 77 bd 93 4b 92 3d 0d e0 48 3d 03 f8 bd 3d
       -0.060431156 0.07143321 0.049041796 0.0927582
000380 d3 fb 11 bd 86 87 1a bd c6 39 ab 3c 86 a4 80 3a
       -0.03564055 -0.0377269 0.020901572 0.0009814657
000390 23 0c 90 bd 22 0a de 3c 3a 33 38 3d 91 3f b3 bc
       -0.07033565 0.027104441 0.04497073 -0.021880897
0003a0 d0 3a fd bc f9 1f fd bc 25 6f a2 bc f6 c6 81 3d
       -0.030911833 -0.030899035 -0.019828388 0.06336777
0003b0 e7 86 1c 3d a8 fc 8d 3d 91 b1 f4 3c 57 db 62 3b
       0.03821459 0.06932956 0.029869827 0.00346156
0003c0 4a 13 28 bc ae 75 b0 3d 7e 98 a2 bd 13 1e 37 be
       -0.010258505 0.086161956 -0.07939242 -0.17882566
0003d0 66 55 99 bd a0 85 16 bd 30 7b bf 3c c8 da b0 bd
       -0.074869916 -0.03674853 0.02337417 -0.08635479
0003e0 c4 e0 cf 3c b3 cc 8f bd 1d a6 c8 3d dd e8 86 3d
       0.025375731 -0.07021465 0.097973086 0.06587384
0003f0 81 87 62 be 7e c1 21 be 37 3b 72 bc f0 42 b9 3d
       -0.22122003 -0.15796468 -0.014784626 0.090459704

predictor/conv1/W f4 [32, 1, 5, 5]
000000 73 0c 98 bd 0b f1 68 3e 07 93 33 be 47 b5 60 3d
       -0.074242495 0.227482 -0.17536555 0.05486038
000010 4a 49 01 bd 74 09 8c 3e b6 f5 0c 3f 54 70 cc 3c
       -0.031564035 0.27350962 0.55062425 0.024955906
000020 53 72 f0 bd cf 05 37 bd d5 6c 86 be 3a 8d 54 3e
       -0.117405556 -0.044683274 -0.26254907 0.20756999
000030 33 e1 f1 bd f0 ca 86 3d 4a 7f c4 3d 2a 4a 90 ba
       -0.118105315 0.06581676 0.09594591 -0.0011008431
000040 e9 fe d4 bd b6 8b cc 3d 36 03 a5 3d 9f e3 7c be
       -0.10400183 0.09987585 0.08057253 -0.24696206
000050 b1 98 f6 be 86 51 77 3e f4 e4 f3 3b b0 a1 d4 bd
       -0.4816337 0.24152192 0.007443065 -0.10382402
000060 cd 2c 4e be 86 a0 d9 be f2 77 55 be 1b 3a 00 be
       -0.20134278 -0.42505282 -0.20846537 -0.12522165
000070 71 4e 7f 3d 90 4c 6e bd 3c 86 90 3d 4e 0e 9e be
       0.062330667 -0.058178484 0.07056853 -0.3087029
000080 cd ed db bc 55 fb 56 3d 47 a6 7f be a8 13 35 be
       -0.02684679 0.052485783 -0.24965774 -0.1768328
000090 3c ef 85 be b5 71 e1 be 45 66 e2 bc ab e4 59 bd
       -0.26159084 -0.44032064 -0.027636657 -0.05319659
0000a0 d7 d9 6d 3c 9c fd 36 3e 1c d2 4c 3c 0a a5 4f 3e
       0.014517269 0.17870182 0.012501266 0.20277801
0000b0 6c a9 6e bd 34 ca 65 be 66 f2 e0 3e 05 91 d6 3e
       -0.058267042 -0.22440416 0.43934935 0.41907516
0000c0 c7 92 9b 3e a8 5b f0 3d 8e 08 f2 3d 49 65 aa bd
       0.3038542 0.11736232 0.11818038 -0.083201
0000d0 30 9b 0a 3e 60 63 9e 3e aa d3 31 3e 80 dd 02 3f
       0.13535762 0.30935192 0.173659 0.5111923
0000e0 ef 70 bd be 32 34 8f 3d bd 98 47 3c aa 8b dd be
       -0.37000224 0.06992377 0.012182412 -0.43270618
0000f0 91 92 25 be 61 d2 83 be 7d 08 d3 3e 93 fd 8d 3e
       -0.16169192 -0.25746444 0.41217414 0.27732524
000100 d8 60 df be ae 07 1c bf a0 c5 13 be e8 33 80 3e
       -0.43628573 -0.6094922 -0.14430857 0.250396
000110 1d 60 8d bd b8 8a 9f bd 0f 3d 93 be 64 bf 0c be
       -0.06903098 -0.077901304 -0.28757522 -0.13744885
000120 dd ad 2a 3e 2d 38 6e be 11 d4 35 3e da d3 62 bd
       0.16667886 -0.23263617 0.17756678 -0.05537782
000130 5c 5f c3 3d 84 08 0e 3e 64 b3 d2 be af fc 10 bf
       0.09539673 0.13870436 -0.4115249 -0.56635565
000140 1e d7 32 be 01 c9 94 bd 8a b5 d3 be 8b 86 29 bd
       -0.17464873 -0.07264901 -0.4134944 -0.041388076
000150 fc d2 e0 3b e4 9d 8f be 44 ec 57 3c 47 83 24 3e
       0.006861089 -0.28050148 0.013178889 0.16065703
000160 ae 3c d2 bc de bf 71 3e bf 4d 23 3e 2f 88 01 bd
       -0.0256637 0.23608348 0.15947627 -0.031624015
000170 a1 82 a5 3b 94 cd d7 3d b3 b4 28 3e 3e 20 3a bb
       0.0050509726 0.10537258 0.16475181 -0.0028400565
000180 bc 09 57 3e bb ca 03 be 93 58 0f 3e 05 38 e7 3e
       0.20999807 -0.12870304 0.13998632 0.45159927
000190 c9 88 06 be a2 ee b1 3e 1f 28 71 3e a2 28 a5 be
       -0.13138117 0.34752375 0.23550461 -0.32257563
0001a0 4e b9 98 be 82 c6 45 be 76 e8 3c 3d 90 6a 82 be
       -0.29828876 -0.19314006 0.04612013 -0.25471926
0001b0 b6 bf 05 be 1c 1a 08 bb 7f ec 70 be 98 84 29 3c
       -0.13061413 -0.0020767516 -0.23527716 0.010346554
0001c0 83 4d c2 3e e8 55 1d 3e 46 4d 04 3e 9f d4 db 3d
       0.37949762 0.15364802 0.12920102 0.10733914
0001d0 e1 10 a1 3e 22 e3 f7 3e a9 a2 52 3e a5 0c 89 3d
       0.3145819 0.48415476 0.20569862 0.06691865
0001e0 aa 2d 66 bd fe b7 2c bf c2 b9 af be 26 dd 26 be
       -0.056195892 -0.6746825 -0.3432141 -0.16295299
0001f0 74 2f 62 bd af 97 8b 3d 63 b1 09 bd ca 80 49 be
       -0.055221036 0.06816041 -0.033616435 -0.19678035
000200 bd a9 0c 3d f2 f1 b5 3e 5a 28 76 3c 2f a6 fe 3e
       0.034341563 0.35536152 0.015024269 0.49736163
000210 4b cd bd 3d 5a 2d bb 3d a7 e3 89 3d 66 14 61 be
       0.09267672 0.091395095 0.06732874 -0.21980438
000220 f1 e4 f8 be eb 8b d0 3e 9b 99 5a 3e 48 71 dc bd
       -0.48612168 0.4073175 0.21347658 -0.10763794
000230 10 ea f9 bd 76 d0 d5 bd 10 6d 8e bd 0b ff 04 be
       -0.12202847 -0.104401514 -0.06954396 -0.12987916
000240 31 a9 ad be 3e e1 14 3e 7a eb ba 3e 9c 6b 9b be
       -0.33918145 0.14539048 0.3650778 -0.30355537
000250 55 a2 c4 be 07 b1 9d 3c 53 1a 10 be d0 bf a4 3e
       -0.384051 0.019249452 -0.14072542 0.3217759
000260 60 9a a4 3e cd c8 1c 3e 34 c7 5e 3d 84 a9 db be
       0.3214903 0.15310974 0.054389194 -0.42902768
000270 c4 7c 8a be f8 1d 59 be cc 94 b5 3e 20 a9 dc 3d
       -0.27048314 -0.21202838 0.35465086 0.107744455
000280 41 3e e9 bd 65 04 07 bf ca 59 b9 bd 97 da ce be
       -0.11388827 -0.5274108 -0.09050329 -0.40401146
000290 89 32 bc be f0 02 15 bc 88 4a e2 be 49 8f ec be
       -0.36757305 -0.009094939 -0.44197488 -0.46203068
0002a0 5b a5 dc be 63 f3 5f be ac 5e f8 3e 6e d0 01 3f
       -0.43094906 -0.21870188 0.4850973 0.50708663
0002b0 00 e1 42 3e 5b d6 96 bd 30 68 05 3d cc d0 6b 3e
       0.19031143 -0.07365104 0.032570064 0.23028868
0002c0 68 79 9e be 9a d6 95 be 8f b4 9c bd 75 7a 93 be
       -0.30952 -0.2926529 -0.07651626 -0.28804365
0002d0 eb 20 1a 3e 33 74 17 be 20 0b e1 bc 9d 47 74 be
       0.1505162 -0.1479042 -0.027471125 -0.23855443
0002e0 4b 99 27 3b a5 78 aa 3d 1f 01 80 3e 6a 57 11 be
       0.0025573547 0.08323792 0.25000855 -0.14193502
0002f0 11 68 96 be 31 f2 26 3e 88 bc 3d 3e dd 47 30 3e
       -0.2937627 0.16303326 0.1852895 0.17214914
000300 ae fe 98 be 4a 19 a2 be 10 d1 9e 3e be 62 03 3f
       -0.29881805 -0.3165992 0.31018877 0.51322544
000310 ec d3 9a 3e 4a 4f 07 be 04 13 b0 3d f7 df 30 3e
       0.3023981 -0.1321384 0.08597377 0.17272936
000320 ec 2b 95 3e 01 d5 c1 be e1 2e a3 3e 12 e9 94 bd
       0.29135072 -0.37857822 0.31871703 -0.07271017
000330 5d bd 39 bd b7 8d 1c be 96 53 7e 3e 1e a2 b7 be
       -0.045346607 -0.15288435 0.24836573 -0.35865873
000340 c8 5f 24 be 63 13 c9 be b5 4d 8d be 55 42 a2 bd
       -0.16052163 -0.39272603 -0.27598348 -0.07922808
000350 ed d4 ff 3c 80 3e 0a 3e dd 4f c5 3d e6 1e 9f bd
       0.03122946 0.13500404 0.09634373 -0.07769565
000360 e6 32 c4 bc fc 98 a8 3e 46 95 9c 3e 95 7e 8a 3d
       -0.023950052 0.32929218 0.30582637 0.06762425
000370 63 90 cd 3e 74 b1 04 3e bf 46 70 3e fd 8c 21 be
       0.4014922 0.12958318 0.23464487 -0.15776439
000380 ef a5 07 3d 14 90 ce 3e 6a c1 74 3e b3 5c 1e bd
       0.03311723 0.40344298 0.23901907 -0.038662624
000390 ae 41 04 be ce d3 38 bf 03 7b 31 3e 1f 8a a9 3e
       -0.1291568 -0.7219819 0.17332081 0.3311319
0003a0 63 a2 76 3e 78 94 1f be 5f 85 c2 be 77 d4 02 3d
       0.24085383 -0.1558398 -0.3799238 0.031940904
0003b0 e5 87 af 3e 3b 08 84 3e 16 11 bd bd 4d 53 34 bf
       0.34283367 0.2578753 -0.092317745 -0.70439607
0003c0 f3 47 25 3e e6 1e 1f 3e 5e b2 00 ba 80 35 a1 3d
       0.16140728 0.1553913 -0.0004909391 0.078715324
0003d0 f4 2f 51 3e ce cb 9a 3e 75 d4 1e 3e 21 ff 61 3d
       0.20428449 0.30233616 0.15510733 0.05517495
0003e0 bd a3 50 be ac 41 a2 be cf a3 13 3d 4e ad db bd
       -0.20374961 -0.3169073 0.036044892 -0.107264146
0003f0 80 8d a6 3c ed b2 af bc 92 d9 82 be 47 55 0b 3f
       0.020331144 -0.021447623 -0.25556618 0.54427

predictor/conv1/b f4 [32]
000000 be c1 10 bd f5 25 90 bb 5b e4 00 bc bb 98 01 bc
       -0.035341017 -0.004399056 -0.007866944 -0.007909949
000010 92 59 bc ba 20 76 e4 bb 90 ba 49 3e 44 f3 c0 bd
       -0.0014369956 -0.0069720894 0.19700074 -0.09421399
000020 ee 7d c4 bd 2d 09 4c bd 48 b4 e7 bc 0b fc 9b bb
       -0.09594332 -0.04981344 -0.028284207 -0.0047602705
000030 e9 5e 35 3d bd 62 18 bc bc f5 1b 3c 36 68 80 3b
       0.044279967 -0.009300885 0.009519037 0.003918673
000040 0b 42 dd bd 33 f7 d2 bc 6d 42 04 bb 0e 4b 37 ba
       -0.10803612 -0.02575264 -0.0020181194 -0.000699208
000050 7f 14 a2 bd 83 bf b9 bd c7 63 cd bd 21 75 e6 bc
       -0.079140656 -0.09069731 -0.10028797 -0.028132023
000060 1e 99 a3 bd c4 a0 96 bb 45 7c 8f 3d 26 f5 87 bd
       -0.07988189 -0.0045968015 0.070061244 -0.06638555
000070 0f e0 2a bd 1a b0 90 bc 34 c5 e5 bc 4e 14 fc 3c
       -0.041717585 -0.017662097 -0.028048135 0.0307714

predictor/conv2/b f4 [64]
000000 f7 74 0f bd 33 87 9c bc 9f 0d 96 bc b6 dc 4c bc
       -0.035023656 -0.019107437 -0.018317042 -0.012503793
000010 06 ca fa bb dd 53 9e bc 3a 24 df bc e3 8c ad bc
       -0.0076534776 -0.019327099 -0.027238954 -0.021185344
000020 cb 5b d1 bb 4e d7 a0 bc 7b d9 61 bc 58 4e 99 bc
       -0.0063891164 -0.019633915 -0.013784762 -0.018714115
000030 a4 fb a3 bc ba c9 19 3d 2f aa 8f 3a c7 1b 03 3d
       -0.020017453 0.037545897 0.0010960753 0.032008912
000040 11 69 ea bc e5 d2 06 bb 5b fd 3d bc 6e 43 9f bc
       -0.028614553 -0.002057248 -0.011596049 -0.019441333
000050 c0 cc 48 bc 8e 7a ff bb bd ae ca bc 9c 0e 8a bc
       -0.012255847 -0.007796592 -0.024741525 -0.01685267
000060 7f c4 f4 bb 97 ee 66 bc 45 7c 1b 3c 4b 0f f7 bc
       -0.007469713 -0.01409497 0.009490077 -0.03015866
000070 02 fa 92 3c d9 0b 11 bd 84 eb c6 3b de ee 8d ba
       0.017941479 -0.03541169 0.006070556 -0.0010828634
000080 a4 6e db bc ac 23 63 3d d2 58 0d bd d2 95 0b bc
       -0.026786156 0.05545394 -0.034508534 -0.008519607
000090 f3 35 d0 3c 2e 0d 49 bc f7 d0 bc bc d4 2e e8 bc
       0.02541635 -0.012271209 -0.023048861 -0.028342642
0000a0 c5 3d bd 3b ad 9a 63 3c c5 9f dd 3a fa d9 79 3a
       0.005775186 0.013891858 0.0016908577 0.0009531077
0000b0 ce cb 06 bd 4c c4 f4 bc 3a b6 28 bc 84 ee 2d bd
       -0.032909207 -0.029878758 -0.010297352 -0.042463794
0000c0 21 d9 52 3d b1 54 20 bd 23 3a 12 bc b0 28 19 bd
       0.0514766 -0.039143268 -0.008924994 -0.03739232
0000d0 9b 23 20 3c 21 e6 93 bc 90 65 00 3c e1 3b 0e bd
       0.009774114 -0.01805407 0.007836714 -0.034725074
0000e0 27 96 f5 bb 01 1c 09 bd b0 4d 01 bd c7 44 aa 3c
       -0.007494706 -0.033473972 -0.03156823 0.020784749
0000f0 26 7e 01 bb 1e 88 d9 bc ed 4a 31 3b 1b c9 80 bc
       -0.0019759028 -0.026554164 0.0027052716 -0.015720895

predictor/conv2/W f4 [64, 32, 5, 5]
000000 59 c7 14 3d 4e 2a 80 3d e5 0d 49 3d 12 16 db 3c
       0.036322925 0.06258069 0.049085516 0.026743922
000010 2e 0a a0 bd 5a 5f 50 bd 17 e9 87 ba e6 18 a8 3d
       -0.078144416 -0.050872184 -0.0010369149 0.08207874
000020 af df 73 3d bd 60 11 3d d0 b3 ab 37 2f 61 49 3b
       0.059539493 0.035492647 2.046852e-05 0.0030728092
000030 6f 90 df bc 0e ef a0 bd a3 23 d7 bb 35 7c c2 bc
       -0.027290551 -0.07858096 -0.0065655275 -0.023740867
000040 14 cf 4a bd d3 87 34 bb 79 4d 92 39 85 2e 67 bd
       -0.04951389 -0.0027546778 0.00027905012 -0.05644085
000050 ca e5 b0 3c bb 12 8b bc 4a 1f 16 3d 03 f5 0f bd
       0.021593947 -0.016976705 0.036650933 -0.03514577
000060 f6 29 30 bd a9 69 59 3d 8b e3 96 bd 5b 1c 6d bc
       -0.043008767 0.05307928 -0.07367619 -0.0144720925
000070 df d5 8c bd 62 47 8f bd f1 85 bf bc 38 07 64 bd
       -0.0687673 -0.06996037 -0.023379298 -0.055670947
000080 9c b6 74 bc e3 d6 84 bd c1 b1 a0 bd c0 63 68 bd
       -0.014936116 -0.06486299 -0.07846404 -0.056735754
000090 02 8b 8e 3c c0 a5 dc 3a 84 15 bc 3d 53 de 9f 3d
       0.017400268 0.0016834065 0.09183791 0.07806077
0000a0 97 ae 0d be 53 6d bb bd 5b cc 97 bd 8e 46 9d bb
       -0.13836132 -0.09151711 -0.074120246 -0.0047996705
0000b0 2c a1 30 3d 6c 18 03 bd 9c d8 9e 3c 49 89 76 bb
       0.043122455 -0.032005712 0.019390397 -0.003761845
0000c0 d9 aa 31 bd 6c 7e 8f bd 6d aa df bc 96 8c 1f bd
       -0.043375824 -0.07006535 -0.027302945 -0.038952433
0000d0 62 7e ee bb 19 f2 a1 3d 26 86 82 3d 4a 62 f8 bd
       -0.0072782496 0.079075046 0.06373243 -0.12128122
0000e0 7b 0d f8 bc a2 4c 89 3d bd 1a 04 3c a8 09 2a bd
       -0.030279865 0.0670407 0.0080630155 -0.041513115
0000f0 9d da a0 3d c0 07 c3 bb 96 1b f4 bc a4 78 02 bd
       0.07854197 -0.0059518516 -0.02979831 -0.031853333
000100 a5 d3 5b 3d 9d 7a e6 3c 83 8d c8 bc 90 0b 1b 3c
       0.053668637 0.028134638 -0.02448154 0.009463206
000110 8f e1 4c bd d8 28 ad 3d 0a c8 ca 3c d7 ea 8c bd
       -0.050019797 0.08455056 0.02475359 -0.0688073
000120 b3 01 1c 3d 49 ed f6 bb a9 e6 13 3d ff 84 e5 bc
       0.038087558 -0.007535611 0.036108647 -0.028017519
000130 07 2f 87 3c 59 dd 89 bd 09 93 22 bd a5 c9 a7 bd
       0.016501917 -0.06731672 -0.039691005 -0.081927575
000140 4f 12 1b bd fd 04 94 bd 5c a6 bc bd 27 e8 9a bd
       -0.037859257 -0.07227514 -0.09211418 -0.07563811
000150 29 ab 54 bc 9b fc 1c be 4d 66 49 bd 5a 87 fc 3d
       -0.012980261 -0.15330736 -0.049169827 0.12330504
000160 b7 06 e0 3d 93 06 a0 3b ea 0e bc bd 14 52 82 3c
       0.10938781 0.004883596 -0.09182532 0.015908279
000170 c8 6e 0b 3d 90 ae 1e bc 5c b3 8a bc 99 57 73 bd
       0.034041196 -0.009685174 -0.016931228 -0.05940971
000180 f8 cc 2a bd 8e d8 d9 bc 67 1f 6e bd 3a 4d 6b bc
       -0.04169938 -0.02659252 -0.058135416 -0.014361674
000190 56 97 f7 bc a4 6b 9c bd ae fc 2a bc 1f d9 b6 bd
       -0.03022353 -0.07637718 -0.01043622 -0.08928131
0001a0 1d 5c 09 be 60 bf a8 bd 54 f2 6a bd 88 72 6d bc
       -0.13414045 -0.08239627 -0.05736001 -0.014492638
0001b0 52 af a3 bc bc ab 22 3b 62 83 9a bc 95 e7 7e bd
       -0.01998106 0.00248216 -0.018861476 -0.062232573
0001c0 37 9f 16 bd 7a 42 3f 3d 21 08 0c 3d 3c 52 ad bc
       -0.036772933 0.046694256 0.03418744 -0.021157376
0001d0 2b f1 0b 3d 6c 98 28 3d 17 92 e3 3c 09 69 9d 3c
       0.034165543 0.041160986 0.027779622 0.019215124
0001e0 40 49 ad 3d 53 8b 0b 3e cd ab 36 3d 81 61 11 3d
       0.08461237 0.13627367 0.044597436 0.035493378
0001f0 ac de fc 3d 97 a0 76 3d 80 25 c5 3d 16 cf d3 3d
       0.12347159 0.060211744 0.09626293 0.10342233
000200 f4 7b 83 3d ba c9 be bd 43 83 8e 3d 80 b3 a9 3d
       0.064201266 -0.0931582 0.0695863 0.0828619
000210 b4 24 91 3b c8 1d 93 bd 4b ae d1 bc 46 6d a0 bc
       0.004429424 -0.07183415 -0.025595805 -0.019583356
000220 f6 1d 81 bd 9d 4e dc bd 91 66 4b 3b a0 f7 15 3d
       -0.06304543 -0.10757182 0.0031036476 0.036613107
000230 73 50 b5 bd 67 ba 0d bc d2 ab 39 bd e5 17 74 3c
       -0.08853235 -0.008650399 -0.045329876 0.014898275
000240 0a 99 31 bc a5 e8 b7 bd 3b 9d 26 bd 04 c8 7f 3d
       -0.01083971 -0.0897992 -0.04067729 0.06244661
000250 28 64 38 bd ea d1 ef bd d6 bc 04 be c2 c7 48 be
       -0.04501739 -0.1170996 -0.1296266 -0.19607452
000260 fd 4d 21 be 4d dd 04 be 66 5e 9b bd 98 ef 82 be
       -0.15752406 -0.12975045 -0.075863644 -0.2557342
000270 f7 3e 82 be 6f cc c1 bd 43 ac b5 3c a4 d7 3b bd
       -0.25438663 -0.09462821 0.022176867 -0.045859948
000280 fc 53 92 be 8b cc 8a bc 76 fa 34 3d d9 59 24 3d
       -0.285797 -0.016943237 0.04418417 0.040124748
000290 55 bc 58 3d 3d 85 5c be 54 18 e2 bd 9b c6 03 3e
       0.052913982 -0.21535201 -0.110397965 0.1286873
0002a0 a1 e9 58 3d 23 36 6e 3d b6 6c 80 3c d0 da 8f bd
       0.05295718 0.058157098 0.015676837 -0.07024157
0002b0 35 2e cb 3d 94 d8 14 3e 6f cf 68 bd 28 48 dd 3c
       0.09920923 0.14535743 -0.05683845 0.027011946
0002c0 d2 f1 bd bb 15 a2 65 3d ed 7d 40 bb ca 3c e2 b9
       -0.0057966495 0.056062777 -0.0029371933 -0.0004315137
0002d0 22 24 41 bd 0c 6b a8 bc 33 60 5f bd 6e 07 00 bd
       -0.0471536 -0.020558856 -0.054535102 -0.031257086
0002e0 48 b5 45 bc ee 9a ba bd 34 41 82 3d 4b 44 db 3d
       -0.012067147 -0.09111582 0.06360093 0.10706385
0002f0 01 1f a9 bb d9 c9 68 bd 66 75 87 bd bb 55 7e 3d
       -0.0051611667 -0.056833122 -0.06614189 0.062093478
000300 15 ee b7 3d 45 e5 96 3c 78 4c c1 3d 18 10 4a bd
       0.089809574 0.018419871 0.094384134 -0.049331754
000310 16 3f 2f 3b 3c f4 92 3d f6 b9 5b 3d ed 98 52 3d
       0.0026740483 0.0717549 0.053644143 0.051415373
000320 1a 6c c1 bc 9f 8e 38 3d 69 ef 2c bd c0 30 65 bd
       -0.023611117 0.04505789 -0.042220507 -0.055954695
000330 61 bf da bc 20 e7 61 3b 6f 47 ec 3b 76 0b 38 bd
       -0.026702585 0.0034470037 0.007210664 -0.044932805
000340 89 9f 81 bc b5 c7 06 bc 10 f7 0a bc 63 73 c5 3c
       -0.015823143 -0.008226325 -0.008481756 0.024102872
000350 68 ef 83 bd 87 a9 c3 bb b4 29 dc 3c 7c 12 7a 3d
       -0.064421475 -0.005971137 0.026875354 0.061052784
000360 7f d7 e7 bc e0 5b c2 bc c4 a3 21 3c 21 d6 62 3d
       -0.028300999 -0.02372545 0.009865705 0.05537999
000370 3f 3d 13 bd d7 60 4b bd 54 02 3b 3d bc f6 87 3c
       -0.03594708 -0.0496529 0.045656517 0.016597144
000380 71 6a b2 3c 14 a8 0c bd 61 1a 8f 3c 5a ed 5f bb
       0.02177927 -0.03433998 0.017468633 -0.0034168572
000390 6a ff b0 3d 5b 30 e0 ba 24 f9 6a 3b 15 ce 77 3d
       0.08642466 -0.0017104255 0.0035854066 0.06049927
0003a0 b6 51 cc 3b 02 5b 33 3d 53 30 e6 3c 35 37 f1 3d
       0.0062353266 0.043787964 0.028099215 0.11778108
0003b0 f3 bb 5b 3d 46 13 3f bc 3d 4c 7e bc ad ea be 3c
       0.05364604 -0.01166231 -0.015521106 0.023305262
0003c0 e3 19 1e 3d 5a c0 36 3d 62 b6 93 bc f7 d8 17 bd
       0.038598906 0.044617034 -0.018031303 -0.03707215
0003d0 89 48 9f bc b7 94 1f bd 9a 9a 00 bd 8f b7 95 3c
       -0.019443767 -0.038960185 -0.03139744 0.018276004
0003e0 e6 74 1d 3c d3 0b 30 3d 08 d8 83 3d 7d fd 0f 3d
       0.00961039 0.042980026 0.06437689 0.035153855
0003f0 ee c5 b1 3d 77 35 2e bd ae cd 1b bd bc eb 8f bd
       0.0868033 -0.042531457 -0.03803795 -0.07027385

predictor/l1/b f4 [10]
000000 c0 b8 5f 3c c6 3f b3 3c 15 97 13 bc 0f 5c e0 bb
       0.013654888 0.021880995 -0.009008189 -0.0068469117
000010 bc f2 7e ba 52 bc 54 b9 62 08 11 bc 0a 3d 9d bb
       -0.00097255013 -0.0002028805 -0.008852096 -0.004798536
000020 d9 0c 80 3b fa 0e af bb
       0.0039077816 -0.0053423615
