linear.model (npz, 741040 bytes, 6 tensors)

predictor/l3/b f4 [10]
00000000: b106 91bc b7e2 1fbd c700 27bc d0aa a7bc
00000010: eeb4 aa3c 5b4a 243d 8fda 87bc e432 16bd
00000020: 6cd2 613d 22da 5fbb
-0.017703386 -0.03903457 -0.010193056 -0.020467192 0.020838227 0.040109973 -0.016583709 -0.036669627
0.055132315 -0.0034157117

predictor/l2/W f4 [200, 200]
00000000: 2eb9 adbd ede6 8fbd 8513 83bc fb5c 74bd
00000010: 1576 233d 2f46 a63d ce1f a7bc 5f24 123d
00000020: 0513 743d cae8 b2bc ca6e d5bd 8e53 fdbc
00000030: e854 97bd 8897 6f3b 8a0b 54bd 8efb 2a3e
00000040: 8062 00bb 162a 0e3e 0d9a 7f3d 60bd 67be
00000050: d4df b0ba 9485 813e 0ffe e13d 80d4 d4bd
00000060: ccc5 9dbc 3559 4d3d bec5 1c3e 9dde ccbc
00000070: 848f 523e 9648 58be cbbf 103e 03ad 9eba
00000080: 3a5d a3bd 0be3 ae3d 4c6a 87bd 7a9e 46bd
00000090: 95c3 353d 2f89 8fbc c395 d53d bc15 033e
000000a0: 0571 1abe 840e 383d efc9 93bb dca1 85bd
000000b0: 046a 4dbd d5ef 9f3d 3705 733b d3d9 173e
000000c0: bd42 7f3e 4bf5 3bbd 81ff 57bd b53c f03d
000000d0: d443 3cbd 1637 acbc 4142 9c3d 2851 7d3e
000000e0: 732a a43c d8ca cdbc bc90 38bd 36f5 db3d
000000f0: 1b84 563d 510b 643d 78fd df3d b7b8 543e
00000100: 5623 9ebd af8c febd 4103 2b3e 52e1 913c
00000110: 307b cb3d 7381 183e a72a a9bd fb4b 9b3b
00000120: 83f5 313e ed24 213e fcb9 b3bd 976f 533d
00000130: 2582 c53c 50ea 0bbe 5c5c 7fbd 4d24 9bbb
00000140: 431f 1c3e 754e 40be 2645 6c3d 6c17 593e
00000150: 0031 bb3e a1ea ff3d 2012 813c efcc eabc
00000160: f74b 58bd d597 733d f9ba e4bd 9cb9 85bd
00000170: 6d3a f63d 048a 903e f799 5dbd a03b 62bd
00000180: 9beb 223c 5c5c ba3d 57c1 aebd 7ccc 7f3e
00000190: 0a9f 57bb 9a7f 473d 5d34 6dbe 9a69 283e
000001a0: 8751 bc3d 0181 50bd 17c8 9cbd 1901 2c3c
000001b0: 3d86 8a3c 99e1 a93e 2ba6 9b3c 09c7 97bd
000001c0: 7572 eebd d412 d03d 2f9a 513e 4af9 9c3d
000001d0: f61e f63d 5690 de3d 45f7 b03d fb8d 8fbd
000001e0: d904 f03d 2318 813d 72c8 50bb 64d1 213d
000001f0: ee12 203e 8058 04bb 6d70 a5bd 863b 94be
00000200: ac97 13bd 5891 0fbe 931d fd3d 20c8 1a3e
00000210: e0ca 9b3d b423 87bd f09a 853e 5893 403d
00000220: ee78 e33c 378c 0bbe d8f7 623d 08ed 113e
00000230: 7e01 223d a9d3 813d 62ac 843e 8fc0 ec3b
00000240: 88c1 1b3b 94ff 44bd 6a0d a13c 4a76 7c3d
00000250: cf97 a53d 0cdb 7bbd 0d8f 403e 225a e63d
00000260: e0e6 91bd 69a7 9a3e c6db bfbd fd66 d63c
00000270: 5070 17bd a6f3 50bc fd19 91bd 5682 1dbd
00000280: 7fa8 a4bd ff94 763d a36c fb3d ae3f 8a3c
00000290: 664a 253e 16d7 e83d 89fe 023e 9906 c63b
000002a0: 7c9c d8bb 12cc abbd ec45 9f3c 5e6e e8ba
000002b0: 8988 40be f830 f4bd ed43 593c 7d34 673d
000002c0: 3d88 af3d 5a82 ebbc 932b e2bc a58f e1bd
000002d0: e727 bb3d e687 513e 8acf b13c d5f4 72bd
000002e0: 8f27 e4bd 1a0e fcbd eed9 163d 7fc3 bdbd
000002f0: a6c8 63bd 36a7 d4bd cef3 883d 3447 b03d
00000300: 8871 593d 876c 743d 0d47 9b3d 30f1 5dbc
00000310: 4df4 1b3e 0381 983d ee0e 243d 0d77 083e
00000320: 854c 603d 5cc9 3e3c d9a1 1bbe 4904 143e
00000330: 8296 99bd 0eab 60bd 068e 743d a79b b3bc
00000340: aa1a bdbd 488b ab3b b6b1 0d3b 9be1 56bd
00000350: 243e c53c 9e06 14bc c231 96be c344 583d
00000360: b7e3 df3d e74d 8ebc 956b 313e ecf2 e93d
00000370: 95fe 5a3e c462 c13d 4743 bc3c df92 8b3c
00000380: 5d84 91bd ad1b 1ebe 6263 463e eecd c93d
00000390: 087b a6bd a5e5 4fbe 73a5 503d 9ac6 d03c
000003a0: 1e60 b83d 8f51 5a3b 14af 68bd 1941 37bd
000003b0: dd81 003e b8a9 90bd 1a18 ee3d 435d 01be
000003c0: a9c3 55bd 2fb2 babd 8992 b8bc e0e2 8837
000003d0: 23a6 15bd e437 7b3d 9832 52bd e357 f53d
000003e0: ce32 043d e0e7 dfbd 12ee ed3d 266e 443d
000003f0: 2a9c 1b3e 20d1 4fbd 33ae cf3d 1a39 6d3e
-0.08482586 -0.070264675 -0.016000519 -0.059658986 0.039907534 0.08118855 -0.020400908 0.035679217
0.05958845 -0.021839518 -0.10421522 -0.030923631 -0.073892415 0.0036558826 -0.051768817 0.16697523
-0.001958996 0.13883242 0.062402774 -0.22630835 -0.001349444 0.25297225 0.11034786 -0.10392094
-0.019259356 0.050133903 0.15309808 -0.025008494 0.2056256 -0.2112144 0.14135663 -0.0012106005
-0.07976766 0.08539399 -0.066120714 -0.04849098 0.044375975 -0.017521469 0.104289554 0.1280126
-0.15082176 0.04493572 -0.0045101563 -0.06525013 -0.050149933 0.07809416 0.0037081966 0.14829187
0.24927802 -0.045888226 -0.052733902 0.11730329 -0.045963123 -0.02102236 0.076298244 0.2473799
0.020039773 -0.025121137 -0.045059904 0.1074013 0.05237208 0.055674855 0.10937017 0.20773588
-0.077215835 -0.12429177 0.1670046 0.017807636 0.099356055 0.14893131 -0.082600884 0.004739282
0.17378812 0.15736742 -0.08775708 0.051620092 0.02410991 -0.13663602 -0.06234394 -0.004734552
0.152463 -0.18779929 0.057683133 0.21200341 0.36560822 0.12495924 0.015755713 -0.028662173
-0.05280682 0.05947097 -0.11168475 -0.06529543 0.120228626 0.28230298 -0.05410191 -0.055232644
0.009943868 0.090996474 -0.085329704 0.24980348 -0.003290119 0.048705675 -0.23164506 0.16446534
0.091952376 -0.050904278 -0.076553516 0.010498309 0.016909713 0.3317993 0.019000133 -0.0741101
-0.11642925 0.10159841 0.20468973 0.076647356 0.12017624 0.10867374 0.08640913 -0.070095025
0.117196746 0.06303432 -0.0031857756 0.03950633 0.15632221 -0.0020194352 -0.08078084 -0.28951663
-0.036033317 -0.14020288 0.123591565 0.15115404 0.07607055 -0.06598607 0.2609477 0.047015518
0.027767625 -0.13627706 0.055412143 0.14250576 0.039552204 0.06339199 0.25912768 0.007225103
0.0023766477 -0.0480953 0.019659717 0.061636247 0.08085596 -0.061488196 0.1880457 0.1124766
-0.07124114 0.3020585 -0.0936809 0.026172156 -0.036972344 -0.012753403 -0.07085035 -0.038454376
-0.080399506 0.060200687 0.1227658 0.016876068 0.16141662 0.113691494 0.1279241 0.006043267
-0.0066104513 -0.08388533 0.019442521 -0.0017733087 -0.18802084 -0.119234025 0.013260824 0.05644654
0.08570907 -0.02874868 -0.027608668 -0.11013726 0.0913847 0.20461997 0.021705408 -0.05931552
-0.11140358 -0.12307377 0.036828928 -0.092658035 -0.055611275 -0.103834555 0.06687127 0.08607331
0.053086787 0.059673812 0.07581911 -0.013546273 0.15229912 0.07446482 0.0400533 0.13326664
0.054760475 0.0116446875 -0.15198459 0.1445476 -0.0749941 -0.05485063 0.059705757 -0.021924807
-0.092336014 0.0052351095 0.0021620817 -0.052461248 0.024077483 -0.009034781 -0.29334837 0.05279995
0.10932105 -0.017371131 0.17326196 0.11423287 0.21386178 0.09442666 0.0229813 0.017037807
-0.071053244 -0.15440245 0.19373849 0.09853731 -0.08128935 -0.20302446 0.050939035 0.025485326
0.09002708 0.0033312773 -0.056807593 -0.044739816 0.12549539 -0.07063621 0.11625691 -0.12633233
-0.05218855 -0.09116017 -0.02253081 1.631811e-05 -0.036535393 0.0613326 -0.05131778 0.11979654
0.032275014 -0.109328985 0.11617674 0.04795661 0.1519629 -0.050736547 0.10140648 0.23166314

predictor/l1/W f4 [200, 784]
00000000: b86a ddbc f87c c7bc 296d 883c e1f9 aebc
00000010: 75b0 823c 60e5 d33c aed2 b43d 6664 23bd
00000020: f48d 3abd c478 acbc a0ed 84bc 8793 cfbc
00000030: bc41 2ebc e201 07bd ab2e 7e3d ff30 64bd
00000040: 11b8 133c afe6 8dbd 6832 12bd 4faf 623c
00000050: 913f aabb 7d6c c93c 35d4 a03c 68ef ed3b
00000060: a65c a4bc a7ec f33c a9ea 5b3d 7c0d 0bbd
00000070: e22b a1bd dd3f b53a f4d2 f6bc 7fa7 553d
00000080: e380 b2bb e05a b9bc 49e3 b2bd 8a2e dc3c
00000090: 7169 df3a 2a09 d4bc c876 98bd 8b57 0cbc
000000a0: d5dd 19bd a3c5 fcbb ea94 b43c b456 013c
000000b0: a62a a2bc d601 d6bc 8d68 84bd ac61 e4bd
000000c0: 7114 a3bd e043 89bd 5e93 0cbd 91d0 07bd
000000d0: bd5f 98bb 5c00 a13a 1710 e13b e5ff abbb
000000e0: c8e7 013e 817a 3fbd 2257 5ebd 287c 8fbd
000000f0: cd2c 1fbd cae5 25bd bb84 c7bb 6b62 e93c
00000100: 42e4 a7bd 411c 7dbd 5094 8bbd 652a 66bd
00000110: 19d4 d2bd 6a91 80bd 6a67 82bd 6490 31bd
00000120: 0717 b1bc 6560 74bd e0c4 c4bd 1f81 a7bd
00000130: 6363 a4bb 3dc7 99bd 00dd d4bd fbaa dfbd
00000140: 91f7 73bd 8b2c 48bb 1057 fa3c 924f 88bd
00000150: 740b 4e3d 3d58 343a da12 afbc f043 bebd
00000160: daf2 8bbd 44b7 203d 5099 afbd 18ea 5bbd
00000170: e3d7 30be 8904 06be 4d46 78bd 0b6c 0dbe
00000180: 4ee7 e2bd 4193 bbbd 51c9 63bd 5b00 313c
00000190: 10d2 333d 10a2 d73c 4b93 babd 1152 0cbe
000001a0: 4d27 bfbd 9d2c 46bd f724 043d 622a dabd
000001b0: c8da 8bbd 4f98 7ebc be57 2ebd b8f3 2cbc
000001c0: 8094 b6bc 6eb4 b3bd 1395 1bbc 64e7 e6bb
000001d0: 26ce 4d3c f1aa 70bd ce8f 8bbd d05e a2bb
000001e0: 872c bcbd f8da 65bd 965b 58bd 51b3 06bc
000001f0: d22f 31bd 1d29 17bd 4421 b0bd 1eda 7c3d
00000200: 1af8 a23c 180d 0e3e ae48 c3bb 0417 d0bd
00000210: f385 303d e8d2 893c 2828 e0ba 7862 8e3d
00000220: 3a44 843d 14b4 b63d 8a90 2c3d 12ac 9dbd
00000230: b587 3d3d a8ea 24bd d6dd 81bd 3085 a9bd
00000240: 4cda dfbd 97c8 16bd d610 f3bd 378f 73bd
00000250: acdb 02be d6f3 25bd 8f1a 123d 5e8b 043e
00000260: d6eb 193d aebd 263d 7910 1abd c195 28bd
00000270: 6da9 263c 7670 153d c3a9 833c 21a8 97bc
00000280: cfa7 18bd 7cf5 8a3d dedd d43d 375c ffbc
00000290: ae2a 41bd 6e30 1abd c46a 01bd 8b72 3bbd
000002a0: 63c3 9d3c abd7 8cbd 7084 83bc 5b5b 38be
000002b0: ebdf ccbd 216a d9bd 39f9 c6bd a1ac 39bd
000002c0: 2fd6 08bc e5fb a93c 494b 203d 0bc7 153d
000002d0: 1208 cdbc 4514 8f3c 8940 013c ee73 c03b
000002e0: b356 76bd 64d9 3a3c 8457 8d3c c490 0bbd
000002f0: 86f1 15bd 8209 893c 41a6 ce3d 92b7 e83c
00000300: 4c14 813c 4d19 683c 499d f7ba 5b20 033c
00000310: 11bf 223d 7b58 29bd df86 e8bb bcf6 8bbd
00000320: a1b5 d5bd 9e0e c5bd 2203 6cbd 7960 cb3c
00000330: 17f1 9a3d 23d4 ab3c 407c 6a3c 3b82 babc
00000340: 3964 92bd 30ba 263d 2087 273c fd07 57ba
00000350: 6107 953d 0c9f 283d bab2 86bb 06dc 103e
00000360: 6ed1 8d3b 20e3 513d e093 c73d cbb8 de3d
00000370: 0f71 8b3d 4d4a 8c3d 4213 6cbb 8328 1abd
00000380: bfce ddbd 4d5f bf3c 31ac 5e3d fae3 b43a
00000390: e773 7cbd 55d5 11bd 2fc1 0fbd 99c0 70bb
000003a0: 9155 a43d 3e07 173d ef55 c73a 5896 42bd
000003b0: 4d6d fdbc 9a75 b1bc bad3 113e 9aca 8c3d
000003c0: 92e5 623d 4206 833d 2603 98bc 4919 38bd
000003d0: 1c38 3a3d a640 93bc 27e6 123d a646 0e3e
000003e0: aa4f 243e 3fc5 303e d8ec 333d 6cc5 b1bb
000003f0: 29d9 063e 7756 ccba 7262 9f3c 6519 33bd
-0.027028427 -0.024351582 0.016653614 -0.021359386 0.015953282 0.02586621 0.088292465 -0.03989067
-0.045545533 -0.02105368 -0.01622659 -0.025338901 -0.0106357895 -0.03296078 0.062056225 -0.05571079
0.009016053 -0.06928765 -0.035692602 0.013835742 -0.005195566 0.024587864 0.019632438 0.0072612055
-0.02006371 0.02977593 0.053690586 -0.033948407 -0.07869698 0.0013828237 -0.030129887 0.05216169
-0.0054474934 -0.02262634 -0.087347575 0.02687766 0.0017044974 -0.025883276 -0.07444531 -0.008565794
-0.03756507 -0.00771399 0.022043664 0.007894207 -0.019795727 -0.026123922 -0.06465254 -0.11151442
-0.07962883 -0.06702399 -0.034320228 -0.03315789 -0.004650085 0.0012283432 0.006868373 -0.005249011
0.12686074 -0.04674769 -0.054282315 -0.07006103 -0.038861085 -0.040502347 -0.0060888208 0.028489312
-0.081978336 -0.061794523 -0.06815398 -0.056192774 -0.10294361 -0.062777355 -0.06367381 -0.043350592
-0.021617426 -0.05966224 -0.096078634 -0.08178925 -0.0050167306 -0.07508705 -0.10393715 -0.10921284
-0.05956227 -0.0030544128 0.030559093 -0.06655802 0.05030389 0.00068796036 -0.021371294 -0.09290302
-0.0683343 0.039237276 -0.08574164 -0.053690046 -0.17269854 -0.13087668 -0.06061392 -0.13810746
-0.11079274 -0.09158946 -0.055611912 0.010803307 0.043901503 0.026322395 -0.09110125 -0.13703181
-0.09333668 -0.04838239 0.032261815 -0.10652615 -0.068288386 -0.015539243 -0.042564146 -0.010556154
-0.022287607 -0.087746486 -0.009495991 -0.007046627 0.012561357 -0.058756772 -0.06814538 -0.00495515
-0.091881804 -0.056117028 -0.05282172 -0.008221463 -0.043258496 -0.036904443 -0.08600095 0.06173145
0.019893695 0.13872182 -0.005959592 -0.1016064 0.043096494 0.0168242 -0.0017101811 0.06952375
0.06458326 0.08921066 0.04213003 -0.076988354 0.046272 -0.04026285 -0.0634114 -0.082773566
-0.10930309 -0.03681239 -0.118684456 -0.059462752 -0.1277911 -0.040515743 0.03566986 0.1294379
0.037578426 0.040708236 -0.037613366 -0.04115844 0.01017223 0.036484204 0.01607216 -0.018512787
-0.03726941 0.06785104 0.1039388 -0.031171901 -0.047159843 -0.037643842 -0.03159596 -0.045763534
0.019258207 -0.06877073 -0.016054362 -0.180036 -0.100036465 -0.106159456 -0.09715504 -0.045330647
-0.008351847 0.020749995 0.039134298 0.036566775 -0.025028262 0.01746572 0.007888922 0.005873195
-0.060141277 0.011404369 0.017253645 -0.034073606 -0.036607288 0.016728166 0.10090304 0.028407846
0.015756749 0.014166188 -0.0018891479 0.00800332 0.039732996 -0.041344147 -0.007096156 -0.0683417
-0.104350336 -0.09621929 -0.057620175 0.024826275 0.075655155 0.020975178 0.01431185 -0.022767177
-0.07148022 0.040704906 0.010225087 -0.00082027895 0.07276798 0.041167304 -0.0041106613 0.14146432
0.0043279445 0.051241994 0.09745002 0.1087509 0.068086736 0.06850109 -0.003602222 -0.03763629
-0.10830449 0.023360873 0.054363433 0.0013800852 -0.06163397 -0.03560384 -0.035096344 -0.003673589
0.08024133 0.03687214 0.0015208105 -0.04750666 -0.030935908 -0.021662522 0.14240924 0.06874581
0.055394717 0.06397678 -0.018556189 -0.04494599 0.045463666 -0.017975163 0.03586402 0.13894138
0.16046014 0.17262743 0.043927044 -0.005425146 0.13168778 -0.0015589733 0.019456122 -0.04372539

predictor/l3/W f4 [10, 200]
00000000: 8c67 ca3d 631d 2dbe 6665 a73d 8a1f 933d
00000010: f2af 92bd aefe d1bd e54b 303e 1f34 0cbd
00000020: a018 083e 57a1 843d 19f1 893d 7936 373d
00000030: ff08 e0bd 4733 6bbc 6489 333e f215 38bd
00000040: 5b20 a3bd ea84 16be 4c4d 76be 01b9 c73d
00000050: f3e1 263e 0cd0 45bd 586f 813d 511e e8bd
00000060: 18c3 2b3e 8e8a 4fbe 345c 28be 398c cbbd
00000070: 737a 33bd 00dc 0e3e b561 78bd fb2c b9bd
00000080: 25e1 fb3d 14da 3c3c c459 03be 12aa 4fbd
00000090: c19f 973d 6dc1 553c be8a dabd cf61 a7bc
000000a0: 1a9b 8fbe 4691 34bd 4fcd 9ebc a7eb ecbc
000000b0: 9255 54be 66a9 3b3e 0c3b 45bd 0caf a1be
000000c0: b3eb 18be 8858 f43d 91c5 f7bd 9ad6 b8bc
000000d0: 7df8 c8bd 79c8 d0bd 8a5e 13be a3b6 2a3e
000000e0: ed4c b5bd 048f 5b3e 476d 9ebe 4e83 ad3b
000000f0: 1fd2 69be 3997 14be 8462 55be 6a10 30bc
00000100: bba0 8bbc 68ed 163c d6d9 78be 420b 3b3e
00000110: 1642 03bd a7d0 873d b2cd 4f3d 2f98 6a3d
00000120: 518d f4bc 8858 143d a83f 4f3d a8f6 0d3d
00000130: 0049 9abd 014b 38bd fa1e 8dbe 485a c9ba
00000140: 09e7 abbc 80e8 053e 3eb9 833c 3ec1 bfbd
00000150: 40a2 0ebc ff88 9bbd adad f13d 8981 c5bd
00000160: 74e6 2c3e e2bb 89be 3d64 c33c db05 47be
00000170: 2f0b 843d 0d86 e23c bc05 3bbd a487 44be
00000180: 1875 033e ae83 00be ea92 3fbe 137c 053e
00000190: a1aa b4bd 52f8 263e 0e84 f13d 63b2 303d
000001a0: 145d 533c 873a 773e dd90 613d bb0c 0ebe
000001b0: 0d54 5d3d 3a01 12bb 2638 4e3e 9077 6d3b
000001c0: 3f75 69be d60d af3d 034b 09bd 88e5 f03c
000001d0: 7d2d 8ebd baa2 44bd ab3f 483e 5ba8 cabc
000001e0: 7a4f 07bc 726f 5f3d 5463 beba d285 5bbd
000001f0: 8e9f 383e 7140 39be f4f3 77bd c5fe aabd
00000200: d51b 2fbe db29 1bbe 7b7a 7f3d d4df 41bd
00000210: db6d 9cbd 33e0 d9bd 292c 713d f087 c6bd
00000220: bac1 d53d fcf0 aabd 920d 3c3e e89c af3d
00000230: e17d 0fbe 2844 f7bd 040c 05be 762c b3bd
00000240: 7af3 253d 79c2 aabd 2fc0 033e e727 62be
00000250: d0d2 b53c a4d7 7b3c af6f cb3d bb0b 893e
00000260: 32d1 d33d fbf5 aabb 4e85 04be 2f04 893d
00000270: 2044 873c 2940 293d 4f2d a8bd 3ffb 3fbe
00000280: 2a07 b23d 3bb5 c5bd d500 bb3d a5e2 ccba
00000290: 3411 76bd cdac 4c3c b866 61be 5343 30be
000002a0: 9a98 2dbd 2f67 3abe 1711 98bd 1812 86b9
000002b0: 5aad 1fbe 4863 22be 7b5c 79bd b591 1dbe
000002c0: dfa4 193d 5a04 41be 6b84 1fbe f280 0cbe
000002d0: 7d6f 4ebe f8cc 943e 6cad a939 7245 a13d
000002e0: fc02 6cbe 8020 af3d 17d0 87bb b9b4 6dbd
000002f0: 8507 a63c f7ba ca3d fb53 f23c 40f6 d13c
00000300: e0e2 a33d 3e0b ffbd 9d1e 57bc ba0e 15be
00000310: 0cc8 efbd 81f4 193d fc20 1abe a73a 003e
00000320: f09e 403d f498 873d 7ecf 013e f6aa 9cbd
00000330: c6bb c2b7 8ba2 9dbe b703 14bd 7a4f 1d3d
00000340: f7a2 3a3c 2981 993e 3ce5 053e 7e74 943c
00000350: 35ac c43d 693c 65bc dcbe 1ebe 4919 603c
00000360: 137b bc3c 6dd8 42bd ad14 14be 90f3 13bd
00000370: 30c3 3f3d 64b7 2bbe 11a7 8fbe abe4 d13d
00000380: 9791 453e 2978 a93d 8f4f a2bc 967c 91bc
00000390: f2da 8dbd 9b7f 15be ce1f c33d 8c36 073e
000003a0: c44e 273d 0c59 12bd e1fd 123e 9ef2 2cbd
000003b0: 2bcf 00be 60d8 4cbe 25cc 97bd cc09 3dbd
000003c0: 8fb1 b63d fe32 2f3e d3b1 9ebe f844 7dbd
000003d0: 4521 a93d 2fb6 f03d 634f 64bd f2bc a83c
000003e0: 6730 96bd 9301 fcbd 22dd 533a e86f 153e
000003f0: 1e81 fcbd 9c29 0fbe d955 e8bd 07be 293e
0.09883031 -0.16905741 0.08173637 0.0718375 -0.07162465 -0.102536544 0.17216451 -0.034229394
0.13290644 0.06476086 0.06735439 0.044729684 -0.10939216 -0.014355487 0.17532879 -0.044942804
-0.07965156 -0.1469914 -0.24052924 0.097520836 0.1629713 -0.048294112 0.06320065 -0.113339074
0.16773641 -0.20267698 -0.16441423 -0.09938855 -0.04381795 0.13951111 -0.060640056 -0.090417825
0.12298802 0.011526603 -0.12827212 -0.0506993 0.074035175 0.013046605 -0.10670994 -0.020432381
-0.2804802 -0.044083856 -0.019385008 -0.028920962 -0.20735767 0.18326339 -0.048152015 -0.31578863
-0.14933662 0.119309485 -0.1209823 -0.022563267 -0.098130204 -0.10194487 -0.14391533 0.16671233
-0.08852563 0.21441275 -0.30942747 0.0052951938 -0.22834061 -0.14510812 -0.20838362 -0.010746101
-0.017044416 0.0092118755 -0.24301848 0.18266013 -0.032045446 0.06631594 0.050733276 0.05727404
-0.029852541 0.036217242 0.050597817 0.034659058 -0.07533455 -0.044993404 -0.27562696 -0.0015361989
-0.02098419 0.13076973 0.016079541 -0.0936303 -0.008705676 -0.07594489 0.11800704 -0.096438475
0.16884786 -0.26901156 0.023851508 -0.19435827 0.064474456 0.027651811 -0.045659766 -0.19192368
0.12837636 -0.12550232 -0.18708387 0.13035612 -0.088216074 0.16305664 0.117927656 0.043138873
0.0129006095 0.2414342 0.055069793 -0.13872044 0.054035235 -0.0022278563 0.20138606 0.0036234595
-0.22798632 0.08547561 -0.033518802 0.029406324 -0.0694227 -0.04800675 0.19555537 -0.024738481
-0.008258695 0.054549642 -0.0014525452 -0.053594418 0.18029615 -0.18090989 -0.060535386 -0.08349375
-0.17100461 -0.15152685 0.062372666 -0.0473326 -0.07638141 -0.10638466 0.058880005 -0.09693897
0.10437341 -0.08346745 0.18364552 0.08574849 -0.14012863 -0.12073547 -0.12992865 -0.087487146
0.0405154 -0.08337874 0.12866281 -0.22085534 0.02219525 0.015371237 0.09933411 0.26766762
0.10342635 -0.0052173114 -0.12941477 0.06690251 0.016511977 0.041320954 -0.08211767 -0.18748187
0.08692773 -0.096537076 0.09131018 -0.001563151 -0.060075 0.012492371 -0.2201184 -0.17213182
-0.04238186 -0.18203424 -0.07425135 -0.00025571953 -0.15593472 -0.15858185 -0.060879212 -0.15387614
0.03751075 -0.18849316 -0.15577857 -0.13721064 -0.20159717 0.2906263 0.000323634 0.07874574
-0.23048013 0.08551121 -0.0041446793 -0.05803368 0.020267257 0.09898942 0.02958106 0.025630116
0.08002257 -0.12453316 -0.013129857 -0.14556399 -0.11708078 0.037586693 -0.15051645 0.12522374
0.047026575 0.0662097 0.12676808 -0.07649796 -2.3214041e-05 -0.30788073 -0.036136355 0.038405873
0.011391393 0.29981354 0.13075727 0.018121954 0.096031584 -0.013991454 -0.15502495 0.013677903
0.023007905 -0.04756968 -0.14461012 -0.03612095 0.046817005 -0.16769177 -0.2805715 0.10248693
0.1929382 0.08274872 -0.019813327 -0.017759603 -0.06926526 -0.14599459 0.09527551 0.13204402
0.0408466 -0.035729453 0.1435466 -0.042223565 -0.12579028 -0.20004416 -0.07411984 -0.04615192
0.08920585 0.17109296 -0.30995044 -0.06183335 0.08258299 0.11753499 -0.05573977 0.020597909
-0.07333451 -0.12304988 0.00080819626 0.1459347 -0.12329315 -0.13980716 -0.11344499 0.16576396

predictor/l1/b f4 [200]
00000000: 07a4 943c 9af8 67ba 7182 a83d c341 78bc
00000010: 30f4 763b f567 833c 1caa 8bbd fdd4 55bb
00000020: 533c a03a b10a 7fbc 81f6 1ebd 7cf6 513d
00000030: 1a64 723c 6974 65bd 7b8a 553d 4b23 39b8
00000040: 52ea 9f3d a6b8 8abc ed17 543a c351 d13d
00000050: 83db b93c 0b2f dbbc 6094 593d ec68 66bc
00000060: 2f4a a33d d839 103d 0f5d bcbc 96f0 f83c
00000070: 55ff 903b efdb 22bd 5151 5abc c6a9 85bc
00000080: abda 30bd 5476 5b3d 7df6 203d ad6b ea3c
00000090: 2784 68bc 573c 073d 1d82 80bc cd0e 18bd
000000a0: cd2f edbb 0d4b a7bc 078f d83c cc80 b23c
000000b0: 810e 4bba 429e 753d 4f78 a73b 14dd b93b
000000c0: a060 2fbc 9cac 593d 6402 153d 6755 183d
000000d0: d679 80bc f9e0 aa3d 3da6 813d 6b0e fd3b
000000e0: 914e 8abc 73a4 8c3c 427d 233d c61e e23b
000000f0: dddc 263d dbee b83c ab61 723d e09f af3d
00000100: 6d0a 8f3d 768c 24bd d803 6cbc 7723 9e3d
00000110: 9fd3 f8bc 17d9 80bd cf38 993d f66c 863c
00000120: 6d81 61bc c2e2 4ebc ab75 163d 4fc5 f03c
00000130: d315 9c3d 9fc8 a83d 5536 b63c 4733 8abc
00000140: ab78 f8ba d6f7 423d 123a d63c cb47 a13d
00000150: ed81 4d3d 01ba 653c 11d6 9d3d c5cc e2bc
00000160: b303 493d 8d37 683c f644 fc3c d9e5 bf3d
00000170: 6911 533d 7046 50bb 2e1c 203d 5cb9 00bd
00000180: 62b2 6c3d a930 64bd 545e f53b d1f1 073b
00000190: 2ccf 16bb 7b85 3fbb d588 153c afac 4e3d
000001a0: c693 a23d 938c f8bc 5192 473c 705c b13c
000001b0: d0fd 023d b38a 7abc 6b65 0b3b e7cc af3b
000001c0: 1ae4 823c 770e f83c bbc9 383b b888 3c3d
000001d0: 4d33 fb3b 9444 083d 40db c5bc 3d3b 013d
000001e0: ecfa 843c 0374 9dbb 000e 093d fbf1 213c
000001f0: a76d e73c da8d 693c a648 72bc d945 b43d
00000200: cc11 0a3d 9099 08bd 34f8 c13c bc73 e0bc
00000210: d9a2 93bc a647 853c 708c a7bc 31f8 aebc
00000220: 78c4 d03a c416 3e3d dda5 6d3d 97a3 703c
00000230: 9b42 5cbb 1476 90bc f6b0 603d 8993 523d
00000240: 95e4 0fbd 6c79 fc3b 047f 113a ca75 4b3d
00000250: 02c2 f73c 8d9e d93c 3c9b ccbc a607 0c3d
00000260: 8f4a ed3c 44f3 143d cd85 c3bc b40a a5b9
00000270: 69be 423d 319b 793d c64a 223d 957d fcbb
00000280: 36aa 3b3d e85c 263d 54ec 2a3d 803e 1fbc
00000290: 8efd 7d3d e422 c63c a9f4 e93c a69b c43c
000002a0: 5d9c f4bb 858f 8e3c 11df edbb 9235 753c
000002b0: 93f3 213d fe1a c6bc 2851 31bc 3857 3fbd
000002c0: 4a5c 9ebc 99fc 133b 7206 2cbc 302e 933b
000002d0: b63f e53c bc18 d03c 6393 583d b414 16bc
000002e0: d65d 113d 52b1 2c3b acd3 3d3d 134b 173d
000002f0: 44f1 9e3d df3e 743d b609 403d 93d1 9cbc
00000300: 898c 7a3d 2159 db3b 9235 f1bb 7830 033d
00000310: 9dd9 fbbb 06d9 903b cb0e 1b3d 5fea b63a
0.01814462 -0.0008848995 0.08228005 -0.015152398 0.0037682168 0.016040782 -0.06819555 -0.0032628172
0.0012225009 -0.015566514 -0.038809303 0.051260456 0.014794374 -0.05601922 0.05213402 -4.4140306e-05
0.07808365 -0.01693375 0.00080907234 0.10220673 0.02268768 -0.02675583 0.053120017 -0.014063101
0.07973134 0.035211414 -0.022993593 0.030388158 0.004424969 -0.039760526 -0.013325051 -0.016316306
-0.043177288 0.053579643 0.03929757 0.028615797 -0.014191664 0.03301653 -0.015687043 -0.03712349
-0.0072383643 -0.02042153 0.026435388 0.02178993 -0.00077459967 0.05996538 0.0051107774 0.0056721065
-0.01070419 0.05314313 0.036379233 0.03719082 -0.015683096 0.083436914 0.063305356 0.007722666
-0.016883167 0.01716826 0.039914377 0.006900641 0.040737975 0.022574833 0.059175175 0.085754156
0.069844104 -0.040173016 -0.014405213 0.07721608 -0.030374346 -0.062914066 0.074815385 0.016409378
-0.013763768 -0.012627305 0.03673331 0.02939096 0.0762135 0.082413904 0.022242704 -0.016870154
-0.001895686 0.047599636 0.026150737 0.078750215 0.050172735 0.014021398 0.077068456 -0.027685532
0.049075793 0.014173401 0.030794602 0.09370012 0.051530275 -0.0031780265 0.039089374 -0.031426772
0.057787307 -0.05571047 0.0074880514 0.00207435 -0.0023011668 -0.0029223848 0.009126862 0.050457653
0.07938342 -0.030340469 0.012180881 0.021650523 0.031980336 -0.0152918575 0.0021270167 0.0053650024
0.015977908 0.030280335 0.0028196413 0.046028823 0.0076660276 0.033268526 -0.024152398 0.031550635
0.01623293 -0.0048050894 0.033460617 0.009884353 0.028250528 0.014255011 -0.014787829 0.08802385
0.03370838 -0.033349574 0.023677923 -0.027398936 -0.018021988 0.016269516 -0.020452708 -0.021358581
0.0015927693 0.04640843 0.058019508 0.01468744 -0.0033609036 -0.017634429 0.054856263 0.05141023
-0.035130102 0.0077049043 0.0005550238 0.04967288 0.030243877 0.02656486 -0.024976365 0.03418698
0.028966216 0.03636481 -0.023867512 -0.00031479227 0.04754487 0.060939018 0.03962209 -0.0077054
0.045816623 0.040615946 0.041729286 -0.009719491 0.062009387 0.024186559 0.028559046 0.024
-0.007464929 0.01740242 -0.0072592576 0.014966385 0.03953893 -0.024182793 -0.010822572 -0.046714038
-0.019331116 0.002258098 -0.010499584 0.00449159 0.027984481 0.02540242 0.052874934 -0.009160209
0.03548988 0.0026350808 0.046344444 0.03693683 0.077608615 0.05963027 0.04688426 -0.019142902
0.06116918 0.0066939746 -0.0073611224 0.032028645 -0.0076858536 0.0044204025 0.037855905 0.0013955346

predictor/l2/b f4 [200]
00000000: 60f5 0fbd 77e3 55bc 634b 903b 5d7f e73c
00000010: 9618 563d 4eb4 a83d 364e 853b df7b 943d
00000020: cebc 223d 5d6d 2d39 fd5b 9a3d 9f94 583d
00000030: cd04 1d3d 05a8 aebc f6ba f13c f70a 08bc
00000040: af35 1c3c c8f9 2a3d 52b7 ff3c 3214 303d
00000050: 9b0b 4d3c 9300 a73d 8997 183d 213d dabc
00000060: 9903 393d c023 8fbb 2412 f7bc 6676 d0ba
00000070: f3f4 653d 8071 273d 00f0 19bd 3dfb 713d
00000080: 2efe 14bc 01ad 903d 7883 87bd 49a5 8bbc
00000090: 1a6e 813b 48e7 8aba 106d 43bc f261 0c3d
000000a0: cd73 01bb 12fd c2bb 5e07 cd3d 4f51 65bc
000000b0: f52f c63c 6422 903c 1131 533d 62c4 763d
000000c0: 103a b3bb ae38 38bb ac4e 1bbd 2ef3 093d
000000d0: cdc6 683c 0f82 513d 5479 bc3d 1b33 ccbc
000000e0: a60d ac3d 2909 4ebc 3636 a73d 7c81 c1bc
000000f0: 14c4 e43c fbda b33d a097 2bbd 5c36 953d
00000100: d4f3 28bd 9fac 6d3d 9331 f53c 32ad 41bd
00000110: c7ec 8fbc 1b54 06bc b4e3 06bc 1a59 0f3d
00000120: dd47 473d 0019 d13c b29e 92bc 502b fd3c
00000130: e43e 9039 bdb7 643c b8f2 ef3c 0f22 54bd
00000140: 730c 0bbc c0bc 9c3d 1d2b 7e3d 0399 163c
00000150: 2898 893d cf0c 653c 5ff7 fa3c c2ad c6bc
00000160: 57d3 373c 0661 45bc a823 e8bc 860e 8b3d
00000170: 1218 853c f75e 0b3d 0228 8fbc f6bb d83c
00000180: 886c 543d 532e 373d 78f0 cb3c 0348 143d
00000190: d911 653d c17e 9e3d 63ec b33c 43a2 e9bc
000001a0: 3502 a03d b5b9 afba 93a3 06bc 3db7 353d
000001b0: 550f 243d c5dd a4bb c2bb 7abc 3e40 c63c
000001c0: bc69 96bc c8e9 e33c 148c d53c eda8 88bc
000001d0: dce5 abbb c190 8ebc 102d 8cbc 2454 2d3d
000001e0: 3808 cfbc 4e56 b0bc 56b8 bd3c 1cd9 0c3b
000001f0: 0e41 26bb af09 4e3d 682d 8c3d ec7d 993d
00000200: 890e f43b b958 2a3d ef88 e9bb e981 9e3d
00000210: 2e5f 493c 3322 c43d c0d1 8fbc e37c 8e3d
00000220: 5f7c 973d 6b5d 993c 04e8 05bc 57b5 893d
00000230: 674a 1dbd 7cf4 c93b ab3c 823d c5c7 e03c
00000240: 4d9b 3fbd 9075 90bb 64cb e73c a01d c3bc
00000250: 0183 87bc c446 ef3c 7b18 053d ee07 0e3d
00000260: f190 873d 7c33 203d 47c2 153d 72f7 13bd
00000270: 2827 693b 4c4e f13c f856 043d 4934 7c3d
00000280: a90c bbbc 5844 373d ead6 243d 3ff3 14bc
00000290: 080b c1bc 7ab1 4f3d 8320 893c 9012 cb3b
000002a0: 1eda 9bbc 8261 373d 818a 1dbc c694 1d3d
000002b0: 4beb 023d b058 9e3d ced7 083d 6d4b 1d3d
000002c0: 027a 4dbd cfcb 68bc a338 4ebc cd21 35bd
000002d0: 7f9c 143d bb3e 0e3c f4d3 1d3d 4b5a d33b
000002e0: 771e a0bc 4cef b33d 140f 96bd aaf3 1d3c
000002f0: 39d4 cc3c 9a32 1abc b0cd 193d 387b c6bc
00000300: d4dc 68bc 6b84 90bb 2645 e53c a158 763b
00000310: 91c5 c03d feed 703c 6419 f93b 2dac fc3b
-0.035146117 -0.01305472 0.004403518 0.028258974 0.05226954 0.082375154 0.0040681614 0.07250189
0.03973084 0.00016539307 0.075370766 0.05287611 0.038334657 -0.021320352 0.029508095 -0.0083033955
0.009534284 0.041742116 0.031215344 0.04298801 0.012514974 0.081544064 0.03725389 -0.026640477
0.045169447 -0.0043682754 -0.030160017 -0.0015904426 0.056141805 0.040879726 -0.037582397 0.05907749
-0.009093804 0.07064248 -0.066168725 -0.017046588 0.0039498927 -0.0010597492 -0.011927858 0.034273095
-0.001975286 -0.0059505785 0.10011171 -0.013996436 0.02419279 0.017594524 0.051560465 0.06024588
-0.005469568 -0.0028109956 -0.037916824 0.03367918 0.014207554 0.051149424 0.09202829 -0.024926713
0.08401041 -0.012575426 0.08164637 -0.023621313 0.027925529 0.087820016 -0.041892648 0.07285759
-0.041248158 0.058025952 0.029930865 -0.047284313 -0.017568959 -0.008198763 -0.008233 0.034997083
0.04865252 0.025524616 -0.017897937 0.030904442 0.00027512677 0.013959822 0.029290542 -0.051790293
-0.008486855 0.07653189 0.062052835 0.009191754 0.067184746 0.013980105 0.030635534 -0.024252776
0.011219821 -0.012047058 -0.028337315 0.067898795 0.01624683 0.034026112 -0.017475132 0.026456814
0.051861316 0.044721913 0.024894938 0.03620149 0.055925224 0.0773902 0.021963304 -0.028519755
0.07812921 -0.0013406785 -0.00821771 0.044364203 0.040053684 -0.00503132 -0.015303554 0.024200555
-0.018360965 0.027821437 0.026067771 -0.016682113 -0.005245907 -0.017403008 -0.017111331 0.04231657
-0.025272474 -0.021525528 0.023159187 0.0021491712 -0.0025368365 0.050302204 0.06844598 0.07494721
0.007448022 0.04158852 -0.0071269195 0.07739622 0.012290759 0.095768355 -0.017556071 0.06957414
0.07396769 0.018721303 -0.008172993 0.06724041 -0.038401034 0.006163178 0.06359228 0.027439008
-0.046778966 -0.004408546 0.028295226 -0.023817837 -0.01654196 0.029208548 0.03249405 0.03467553
0.06619442 0.0391116 0.03656223 -0.036124654 0.0035576317 0.02945628 0.032309502 0.0615733
-0.022833185 0.044742912 0.04024402 -0.0090911975 -0.02356483 0.050706364 0.016739136 0.006197281
-0.019024905 0.044770725 -0.009615541 0.03847196 0.031962674 0.077317595 0.033408932 0.03840201
-0.050165184 -0.014208748 -0.012586745 -0.044221688 0.03628206 0.008681948 0.038532212 0.0064499727
-0.019545777 0.08785877 -0.07327095 0.009640614 0.02500354 -0.009411478 0.037549675 -0.024228677
-0.014212806 -0.0044103167 0.027987074 0.0037589448 0.09412683 0.014705179 0.0076019038 0.0077109546
