my.model (npz, 334295 bytes, 6 tensors)

predictor/l1/W f4 [100, 784]
-0.0049122414 0.034195162 0.018843193 -0.04601628 -0.016701568 -0.00087062054 -0.021343991 0.016070545
-0.005732259 0.020035928 0.007737176 -0.017685175 -0.0044483854 0.058629364 0.029873084 0.040057562
-0.019715652 -0.101951525 -0.0067759706 0.08704284 0.028223187 -0.057458706 0.0034192964 0.06504855
-0.041413087 0.0009103031 -0.0304278 -0.06052857 -0.009405438 -0.012556306 0.0055647762 -0.045570016
-0.012902139 0.00879408 -0.049070645 0.0009525558 -0.042934366 -0.026795087 -0.0633918 0.08971469
-0.049124423 -0.0527708 0.017554862 -0.083366275 -0.11206364 -0.075028315 0.012465021 0.0048851455
-0.0616572 -0.018416371 -0.061616138 0.023872185 -0.0071763 0.0035737483 0.0060276166 0.011895076
-0.024794508 0.005615198 -0.03726154 -0.06155795 -0.1273566 0.044161614 -0.104495645 -0.07117459
-0.017301822 0.026280263 -0.102147415 -0.07788195 -0.0994416 -0.020332629 -0.11799509 -0.026330357
-0.043501265 -0.00794613 -0.008873778 -0.0847387 -0.055494945 -0.079918295 -0.06080457 -0.0656082
-0.04793475 0.0057378123 -0.037371866 -0.018122349 0.007320605 -0.0051054726 0.10578302 -0.07192444
-0.06935777 -0.019024743 0.014899745 -0.026051845 -0.11573575 -0.0915681 -0.10514365 -0.06141914
-0.059647366 -0.16175762 -0.29154763 -0.20208505 -0.22817965 -0.17622405 -0.124717765 -0.0126557425
-0.05861516 -0.10305465 0.06953267 -0.07056958 -0.06572616 0.0049309996 -0.048916202 0.007970955
-0.014429653 -0.04114427 0.009307759 0.13787405 -0.034788124 -0.02377541 -0.0014044981 -0.12788795
-0.14247975 -0.088678986 -0.052363224 -0.05355874 -0.07291581 -0.08629058 -0.11681817 -0.029939927
-0.043134317 -0.042030703 -0.0049345633 -0.053451236 -0.00012365835 -0.024825366 0.04503976 0.13479212
-0.05693103 0.003166548 -0.008932602 -0.13319619 0.048361365 -0.043084357 -0.0032688067 0.032827724
0.0031614339 -0.06668762 -0.009364815 -0.07226397 -0.08122425 -0.09167797 -0.14392164 -0.09362303
0.06616421 -0.023172138 0.03488852 -0.008720113 -0.10875362 -0.04928911 -0.14482345 -0.045113016
0.014028567 0.009805911 -0.00867308 0.04596727 0.027789004 0.05017979 -0.095223166 -0.06275461
-0.007768675 0.0069112997 0.027386509 0.057729617 0.08184001 0.009092915 -0.12977456 -0.00957269
-0.13796696 -0.13866878 -0.09092574 -0.019982424 0.06450474 0.0014333717 -0.00059620733 -0.14261782
-0.11131864 -0.14854026 -0.07125459 -0.011766838 -0.0040561394 -0.114509 0.03303386 0.06424475
0.03647725 -0.0075874263 0.080378965 -0.08559045 0.050176367 -0.054661024 0.040349953 0.019177595
-0.022985836 0.0054662493 -0.074635334 -0.05937855 -0.11940279 -0.020400457 -0.014358406 -0.059432644
0.07717574 0.04991665 -0.036315706 -0.09747233 -0.13557471 -0.13523602 -0.09849342 -0.072125904
-0.07049665 -0.0029954722 0.0073140543 0.1073555 -0.00400056 -0.07036202 0.0053010983 -0.036154784
-0.020710086 -0.11630253 -0.0012232856 0.07031022 0.062209822 0.035203572 0.06292137 0.03790442
-0.0171812 -0.03913062 -0.050522193 -0.0029734836 0.0153275225 0.07946546 0.0058734356 -0.026145408
-0.1031409 -0.074858055 -0.032923616 -0.050840236 0.050877795 -0.012704584 0.041516982 0.15769719
0.16859329 0.20472327 0.07582279 0.087265216 0.0019428176 0.011013974 -0.03266958 -0.03838803
00000000: def6 a0bb 3a10 0c3d 0a5d 9a3c 917b 3cbd
00000010: bad1 88bc 5b3a 64ba 98d9 aebc 60a6 833c
00000020: acd5 bbbb 6322 a43c 2388 fd3b 80e0 90bc
00000030: c3c3 91bb 5825 703d 66b8 f43c 6613 243d
00000040: b882 a1bc f6cb d0bd f608 debb 8443 b23d
00000050: 5034 e73c d259 6bbd 4616 603b 2d38 853d
00000060: c5a0 29bd 68a1 6e3a b943 f9bc ceec 77bd
00000070: 4419 1abc f7b8 4dbc ba58 b63b a0a7 3abd
00000080: 7e63 53bc 0b15 103c 4dfe 48bd f0b4 793a
00000090: f2db 2fbd 5f81 dbbc 8fd3 81bd 56bc b73d
000000a0: b136 49bd 3226 58bd 37cf 8f3c f0bb aabd
000000b0: 9f81 e5bd 72a8 99bd 163a 4c3c 9213 a03b
000000c0: 438c 7cbd eedd 96bc 3461 7cbd 9a8f c33c
000000d0: 2b27 ebbb 8c35 6a3b 5083 c53b 91e3 423c
000000e0: da1d cbbc b2ff b73b 8e9f 18bd 3024 7cbd
000000f0: c569 02be cfe2 343d d001 d6bd fcc3 91bd
00000100: 8dbc 8dbc b549 d73c aa32 d1bd 9280 9fbd
00000110: 0aa8 cbbd 9d90 a6bc 69a7 f1bd c3b2 d7bc
00000120: 622e 32bd 7c30 02bc 5363 11bc 7c8b adbd
00000130: ab4e 63bd 34ac a3bd 360e 79bd 985d 86bd
00000140: 3a57 44bd 4204 bc3b 3e13 19bd 5275 94bc
00000150: b0e1 ef3b cf4b a7bb c5a4 d83d 1f4d 93bd
00000160: 720b 8ebd c7d9 9bbc 0f1e 743c ae6a d5bc
00000170: dd06 edbd 0e88 bbbd 8e55 d7bd a392 7bbd
00000180: cc50 74bd caa3 25be bb45 95be 62ef 4ebe
00000190: eda7 69be 1474 34be 076c ffbd 085a 4fbc
000001a0: 7316 70bd 510e d3bd 2567 8e3d c986 90bd
000001b0: 709b 86bd 3994 a13b 5b5c 48bd 9c98 023c
000001c0: 5a6a 6cbc e586 28bd 927f 183c db2e 0d3e
000001d0: fe7d 0ebd a6c4 c2bc 2317 b8ba 0ff5 02be
000001e0: 36e6 11be 549d b5bd d27a 56bd 6960 5bbd
000001f0: e254 95bd 1eb9 b0bd 5d3e efbd 9444 f5bc
00000200: 9cad 30bd 6328 2cbd 1eb2 a1bb afef 5abd
00000210: 49aa 01b9 915e cbbc 9d7b 383d f206 0a3e
00000220: 8330 69bd dc85 4f3b 0c5a 12bc 9564 08be
00000230: 9116 463d 3979 30bd 7a39 56bb 5d76 063d
00000240: 0f30 4f3b 8593 88bd e26e 19bc 22ff 93bd
00000250: e658 a6bd a9c1 bbbd 3260 13be 6ebd bfbd
00000260: 1a81 873d 7fd3 bdbc 44e7 0e3d cede 0ebc
00000270: 38ba debd 61e3 49bd 994c 14be 6dc8 38bd
00000280: 13d8 653c f9a8 203c 8919 0ebc 2d48 3c3d
00000290: c4a5 e33c 5389 4d3d 5d04 c3bd 7d85 80bd
000002a0: 5f90 febb 2f78 e23b ac59 e03c e475 6c3d
000002b0: bc9b a73d 73fa 143c 9fe3 04be c6d6 1cbc
000002c0: 3647 0dbe 30ff 0dbe 4637 babd 2eb2 a3bc
000002d0: 101b 843d f9df bb3a cc4a 1cba 680a 12be
000002e0: 07fb e3bd f01a 18be eded 91bd b2c9 40bc
000002f0: 5de9 84bb b283 eabd 834e 073d c092 833d
00000300: 2b69 153d f29f f8bb ba9d a43d 0c4a afbd
00000310: bc85 4d3d 3de4 5fbd fe45 253d 551a 9d3c
00000320: cb4c bcbc 391e b33b 69da 98bd ec36 73bd
00000330: 7389 f4bd dc1e a7bc 853f 6bbc a56f 73bd
00000340: 500e 9e3d 6775 4c3d c7bf 14bd 939f c7bd
00000350: 19d4 0abe 507b 0abe ebb6 c9bd bfb6 93bd
00000360: 8c60 90bd af4f 44bb bcaa ef3b 33dd db3d
00000370: 2117 83bb f619 90bd d6b4 ad3b 0a17 14bd
00000380: 33a8 a9bc 0530 eebd a756 a0ba cefe 8f3d
00000390: bacf 7e3d 9f31 103d ebdc 803d aa41 1b3d
000003a0: 97bf 8cbc 6e47 20bd 5cf0 4ebd c7de 42bb
000003b0: 4a20 7b3c c9be a23d f375 c03b e52e d6bc
000003c0: 893b d3bd 2e4f 99bd eada 06bd da3d 50bd
000003d0: 3c65 503d e326 50bc b60d 2a3d 5f7b 213e
000003e0: b8a3 2c3e faa2 513e fb48 9b3d 1bb8 b23d
000003f0: 24a6 fe3a f573 343c 8ad0 05bd c43c 1dbd

predictor/l2/W f4 [100, 100]
0.01644933 -0.06431165 -0.019620541 -0.25345474 0.037554175 0.028725017 -0.037301872 0.10432447
0.178564 -0.16606075 -0.08957475 -0.0023120502 -0.22387478 -0.06946018 0.1921883 -0.16034214
-0.10966772 -0.13231422 -0.087789975 0.013523164 -0.13730387 0.068741836 -0.08838176 -0.26307192
-0.02662669 0.102948196 -0.070776425 0.1467971 0.13200688 0.022332508 0.07316335 -0.26693824
-0.0016980922 0.10690786 -0.0008249827 -0.39009544 0.07131178 0.06978827 -0.044436183 -0.020519175
-0.106601454 0.32203504 -0.02565321 -0.27520284 0.051963918 0.3395838 -0.01648701 0.11523247
-0.016794115 0.041225705 -0.09908039 0.16086905 -0.004421325 0.21402334 -0.033346355 0.067750596
0.12596992 -0.10125986 0.33114886 0.04363424 -0.16107346 0.17513148 -0.063470416 -0.099508636
0.18403436 0.067819186 -0.062958255 -0.13766742 0.23880404 -0.17018284 0.058479417 0.0897676
0.01666295 0.066579506 -0.036108725 0.0053110225 0.13537557 0.026596298 0.05199661 -0.07480197
0.13791156 -0.15620644 0.08429775 0.08857431 0.14733225 -0.08003908 0.06704985 0.12338984
0.25133264 -0.14305378 -0.11417454 0.08973728 0.039233584 -0.06329452 -0.099266715 -0.06999247
0.015980769 0.014776478 0.10188154 0.1311123 -0.23401207 -0.035646252 0.12729977 0.17844123
0.09092452 -0.18671408 -0.07302819 0.025489198 -0.41248536 0.14051868 -0.25873035 -0.052924927
0.053625155 0.14944892 0.16123116 0.2569109 -0.4186337 0.0633766 0.08679565 -0.023710705
0.18064035 0.11536543 -0.19152427 -0.17728092 -0.0045784083 0.04973124 -0.056285664 0.18419085
0.009191362 0.21110329 0.119289495 -0.02219182 0.18135364 -0.45557985 -0.24750878 0.03388147
-0.063481525 -0.20439692 0.008080273 -0.027724653 0.049168013 -0.2638191 -0.020832404 0.071947314
0.056436677 0.02808361 -0.12642786 0.12196358 -0.16115426 0.050513692 0.12358737 0.1426444
0.20612891 -0.19451024 -0.007649905 0.013350918 -0.18845469 -0.20211917 -0.10223639 0.09595133
0.23197562 -0.07241484 0.096167885 0.14340986 0.1142911 0.11667727 -0.00023566671 0.19129662
-0.039012343 -0.03434698 -0.40199542 0.04201246 0.1492234 -0.056278348 0.0013211549 0.06986653
-0.28413647 -0.15956745 -0.022074409 0.075328775 0.2643208 -0.07207103 0.104297146 0.04651818
0.07228873 0.0675249 0.022165067 0.26060873 0.12966657 0.05286489 -0.048525713 0.07167819
0.10342726 -0.10891377 -0.10698385 -0.44416165 0.04689905 -0.07813343 -0.10494274 -0.1593507
-0.18468155 0.12447631 0.15485193 -0.06620128 -0.044582345 0.16976354 -0.17738086 0.1325264
0.1462377 -0.17965594 -0.12705646 0.17855136 -0.11143565 0.11763765 -0.0910807 -0.1082843
0.119451225 -0.15698415 -0.042123873 -0.01113226 -0.19589563 -0.066067316 0.0122989435 -0.038038105
0.15422916 0.049762663 -0.0922774 -0.15820815 0.00789752 0.103815064 0.11156481 -0.07177968
0.06034966 -0.024666449 -0.25585124 0.13824604 -0.06658412 -0.038359895 -0.16091615 -0.079060465
-0.05035254 0.002087614 0.31446555 -0.07155129 -0.09515754 0.0940817 0.03857599 -0.28671172
0.07204086 0.059657898 -0.001013984 -0.14938688 -0.20092745 -0.10443127 0.073890954 0.13869081
00000000: bfc0 863c d4b5 83bd 42bb a0bc d2c4 81be
00000010: 68d2 193d ba50 eb3c d9c9 18bd 11a8 d53d
00000020: 7bd9 363e d40b 2abe f772 b7bd c485 17bb
00000030: 6e3f 65be 2441 8ebd 02cd 443e bb30 24be
00000040: 7899 e0bd 617d 07be 3bcb b3bd 4390 5d3c
00000050: 6399 0cbe 85c8 8c3d 7f01 b5bd 5db1 86be
00000060: 3720 dabc 81d6 d23d 3bf3 90bd fb51 163e
00000070: d02c 073e aaf2 b63c abd6 953d 21ac 88be
00000080: 8592 deba 82f2 da3d a743 58ba 97ba c7be
00000090: e90b 923d 27ed 8e3d b702 36bd d417 a8bc
000000a0: dd51 dabd c7e1 a43e ae26 d2bc 63e7 8cbe
000000b0: 1ed8 543d eedd ad3e c40f 87bc 00ff eb3d
000000c0: d093 89bc 49dc 283d a9ea cabd dbba 243e
000000d0: c3e0 90bb ef28 5b3e 3096 08bd d3c0 8a3d
000000e0: 42fe 003e 5461 cfbd 588c a93e d1b9 323d
000000f0: 71f0 24be ab55 333e c7fc 81bd 2fcb cbbd
00000100: 8173 3c3e c9e4 8a3d 42f0 80bd b0f8 0cbe
00000110: 0c89 743e 6944 2ebe 1d88 6f3d 13d8 b73d
00000120: bd80 883c d65a 883d bee6 13bd 1608 ae3b
00000130: e59f 0a3e 7be0 d93c 66fa 543d c631 99bd
00000140: b038 0d3e 95f4 1fbe 4ca4 ac3d 7366 b53d
00000150: 44de 163e 87eb a3bd 6f51 893d d0b3 fc3d
00000160: acae 803e b17c 12be 57d4 e9bd 2ec8 b73d
00000170: 65b3 203d 8fa0 81bd 594c cbbd 3658 8fbd
00000180: 1aea 823c 0a19 723c 45a7 d03d 4e42 063e
00000190: dca0 6fbe ce01 12bd df5a 023e 4cb9 363e
000001a0: a236 ba3d fa31 3fbe ce8f 95bd b9ce d03c
000001b0: 4831 d3be 21e4 0f3e 4e78 84be cfc7 58bd
000001c0: 0da6 5b3d 2309 193e c819 253e d389 833e
000001d0: 2857 d6be 97cb 813d ebc1 b13d f43c c2bc
000001e0: c9f9 383e b644 ec3d f01e 44be 2189 35be
000001f0: 7906 96bb fcb2 4b3d cc8b 66bd 879c 3c3e
00000200: 5e97 163c 762b 583e 0d4e f43d 9fcb b5bc
00000210: c5b4 393e c341 e9be f172 7dbe 4cc7 0a3d
00000220: 9a02 82bd 6d4d 51be 1f63 043c d01e e3bc
00000230: 6664 493d 4c13 87be b8a8 aabc 1d59 933d
00000240: 252a 673d 990f e63c 4e76 01be 0bc8 f93d
00000250: 9f05 25be 72e7 4e3d 601b fd3d 6011 123e
00000260: 7513 533e b12d 47be 0eac fabb cfbd 5a3c
00000270: 44fa 40be 54f8 4ebe 5061 d1bd 2282 c43d
00000280: 048b 6d3e 3b4e 94bd abf3 c43d 09da 123e
00000290: 7411 ea3d 7ef4 ee3d 4d1d 77b9 43e3 433e
000002a0: 68cb 1fbd 6baf 0cbd 58d2 cdbe 4215 2c3d
000002b0: 05ce 183e 2084 66bd 9a2a ad3a 2f16 8f3d
000002c0: 567a 91be a665 23be 64d5 b4bc f945 9a3d
000002d0: 0e55 873e fa99 93bd be99 d53d d989 3e3d
000002e0: 1d0c 943d 7f4a 8a3d 8493 b53c 826e 853e
000002f0: 50c7 043e db88 583d e6c2 46bd 04cc 923d
00000300: acd1 d33d 2f0e dfbd 591a dbbd 2869 e3be
00000310: 3819 403d 6b04 a0bd 38ec d6bd d42c 23be
00000320: 291d 3dbe 70ed fe3d 8191 1e3e 8994 87bd
00000330: fa9b 36bd 7ed6 2d3e 54a3 35be 00b5 073e
00000340: 56bf 153e baf7 37be 171b 02be 2bd6 363e
00000350: 6038 e4bd 02ec f03d 8588 babd 29c4 ddbd
00000360: d8a2 f43d 74c0 20be 158a 2cbd 1564 36bc
00000370: dd98 48be 4d4e 87bd 8281 493c d8cd 1bbd
00000380: 40ee 1d3e efd3 4b3d effb bcbd 5101 22be
00000390: 9a64 013c fe9c d43d 177c e43d 3a01 93bd
000003a0: 3531 773d 4b11 cabc effe 82be 5f90 0d3e
000003b0: 415d 88bd 441f 1dbd 34c7 24be 74ea a1bd
000003c0: 773e 4ebd 5ad0 083b a101 a13e 7c89 92bd
000003d0: f5e1 c2bd e8ad c03d db01 1e3d e1cb 92be
000003e0: 298a 933d d75b 743d a8e7 84ba e0f8 18be
000003f0: edbf 4dbe 10e0 d5bd 2454 973d f704 0e3e

predictor/l2/b f4 [100]
0.026605992 -0.010123638 0.018979313 0.043707542 0.060388852 0.027012385 0.056168646 0.02481188
0.05154086 0.02952777 0.023245797 0.094486326 0.00097118574 0.0725949 -0.023612889 0.02230763
-0.02214476 0.05831014 0.053641573 -0.016713468 0.027506538 0.041629545 0.042749003 0.047503933
-0.005338364 0.017420502 0.074347146 -0.032001995 -0.024085082 0.024858402 0.06951745 0.053117916
0.027756892 0.078879535 -0.018371256 0.050879385 0.052186158 0.055715833 0.071636565 0.009285204
0.047441855 -0.0034295009 0.031209322 0.028403834 -0.03488005 0.07621926 0.027624175 0.06698038
0.042882908 0.012652068 0.046872023 0.042794786 0.081378415 0.03197146 0.061836913 0.027527804
0.041294023 0.057247974 -0.0041424613 0.034762554 0.046979047 0.012355413 0.09234612 0.04039935
0.040160175 0.065347925 0.034038037 0.015989752 0.08229746 0.067316875 0.056396425 -0.0003743506
-0.00692438 0.031885996 0.01618063 0.05212283 0.0388824 0.022221511 -0.0114070615 0.07113392
0.038337916 0.049263485 0.050778706 0.03301789 0.004627399 0.026665347 0.056973744 0.03515405
-0.018118123 0.04402108 0.0599714 0.03858029 0.05085707 0.06324151 -0.016757729 -0.0025527568
0.048236877 -0.0043424657 0.01368068 0.018787859
00000000: cff4 d93c 9edd 25bc 817a 9b3c ae06 333d
00000010: 4d5a 773d 1449 dd3c 1811 663d 4942 cb3c
00000020: 821c 533d 39e4 f13c f86d be3c 0c82 c13d
00000030: 2c97 7e3a a3ac 943d d16f c1bc 7ebe b63c
00000040: ed68 b5bc 9dd6 6e3d 44b7 5b3d afea 88bc
00000050: 6455 e13c be83 2a3d 9419 2f3d 7c93 423d
00000060: 71ed aebb 71b5 8e3c 5143 983d 8614 03bd
00000070: 144e c5bc d9a3 cb3c 2a5f 8e3d 2c92 593d
00000080: 6c62 e33c 988b a13d 517f 96bc e766 503d
00000090: 27c1 553d 4936 643d 31b6 923d f820 183c
000000a0: 6452 423d 7ac1 60bb b1aa ff3c 28af e83c
000000b0: 62de 0ebd d818 9c3d 184c e23c 022d 893d
000000c0: fda5 2f3d 9f4a 4f3c e1fc 3f3d 9649 2f3d
000000d0: baa9 a63d 81f4 023d b448 7d3d fd81 e13c
000000e0: ec23 293d da7c 6a3d 7cbd 87bb 2e63 0e3d
000000f0: 1a6d 403d 5c6e 4a3c f61f bd3d ca79 253d
00000100: ff7e 243d 22d5 853d 786b 0b3d f1fc 823c
00000110: 928b a83d 6edd 893d f0ff 663d 7d44 c4b9
00000120: e9e5 e2bb e49a 023d 3e8d 843c c07e 553d
00000130: 2743 1f3d e309 b63c afe4 3abc a9ae 913d
00000140: 3808 1d3d 82c8 493d 55fd 4f3d c43d 073d
00000150: 70a1 973b 4971 da3c 4d5d 693d b1fd 0f3d
00000160: 756c 94bc 734f 343d 92a4 753d 5e06 1e3d
00000170: 814f 503d c484 813d 8147 89bc 274c 27bb
00000180: 0894 453d 3e4b 8ebb ee24 603c ffe8 993c

predictor/l1/b f4 [100]
0.13942643 0.011261438 0.020689653 0.006877513 0.0972022 0.008132075 -0.01253648 -0.026081583
0.052341554 0.020754877 0.079044014 0.06915717 0.008657649 -0.03509131 -0.00060261093 0.016749859
0.026810879 0.019568732 0.0349068 -0.025878225 0.08342812 0.02861058 -0.013464966 0.03635941
-0.023053298 -0.022688108 0.016222488 -0.025798274 -0.013038298 0.044504482 -0.028509215 0.117795505
0.07634591 0.05061456 0.057095546 0.09944743 -0.01646611 0.052794524 0.05928794 0.024233585
0.015808446 0.020181062 -0.058533315 0.05972446 0.0047376766 0.0002545081 0.06580703 -0.023128117
0.012809295 0.005042685 0.09020767 -0.016156942 0.09508672 0.024908025 0.098104976 0.08135857
-0.042514876 0.05193336 0.045078743 0.0009854785 0.031860363 0.063712955 0.049109686 0.03403118
-0.0052541024 0.02943289 0.028403092 0.06717644 -0.022327725 -0.016538624 0.034067933 0.06557232
0.070608266 0.03880319 0.02959507 -0.009216152 0.011939523 0.081044905 0.06473669 -0.050854087
0.033467714 0.068124846 -0.0036042673 0.029266817 0.06526374 0.044073027 -0.020240547 0.029241797
0.016104119 0.008162074 0.104510315 0.012403059 0.096042514 0.035657015 -0.011089246 -0.07518289
0.03576946 -0.07893226 0.05397337 0.0512148
00000000: cdc5 0e3e e581 383c 597d a93c c35c e13b
00000010: f211 c73d 653c 053c cf65 4dbc 0ba9 d5bc
00000020: 1964 563d 2206 aa3c d4e1 a13d 46a2 8d3d
00000030: d0d8 0d3c e8bb 0fbd 89f8 1dba 0037 893c
00000040: 7da2 db3c 9b4e a03c 6ffa 0e3d 92fe d3bc
00000050: 5ddc aa3d bc60 ea3c 299c 5cbc 9bed 143d
00000060: 45da bcbc 69dc b9bc 06e5 843c e756 d3bc
00000070: 969e 55bc 554a 363d 288c e9bc c53e f13d
00000080: 3f5b 9c3d 3651 4f3d 05dd 693d 18ab cb3d
00000090: efe3 86bc 123f 583d e9d7 723d 8385 c63c
000000a0: b780 813c c152 a53c a1c0 6fbd a3a1 743d
000000b0: 833e 9b3b 806f 8539 d6c5 863d 2d77 bdbc
000000c0: 14de 513c 1c3d a53b cdbe b83d 905b 84bc
000000d0: d4bc c23d ea0b cc3c 43eb c83d 529f a63d
000000e0: 1424 2ebd 13b8 543d 7da4 383d 2c2b 813a
000000f0: 0380 023d f07b 823d 3d27 493d 4764 0b3d
00000100: 9b2a acbb 3e1d f13c 9aad e83c cd93 893d
00000110: a2e8 b6bc 027c 87bc d18a 0b3d c84a 863d
00000120: 119b 903d 18f0 1e3d 5c71 f23c 58ff 16bc
00000130: fd9d 433c dffa a53d ab94 843d 604c 50bd
00000140: 7115 093d 0a85 8b3d 9235 6cbb f7c0 ef3c
00000150: ffa8 853d eb85 343d 81cf a5bc 7e8c ef3c
00000160: c9ec 833c 38ba 053c 8109 d63d 3336 4b3c
00000170: f0b1 c43d 170d 123d abaf 35bc 7df9 99bd
00000180: ff82 123d 3da7 a1bd 2e13 5d3d 9cc6 513d

predictor/l3/b f4 [10]
-0.071028076 0.021665214 0.011611038 -0.012951354 0.011759552 0.030879082 0.010199621 -0.01917525
0.004678274 -0.021281835
00000000: 2b77 91bd 3f7b b13c 393c 3e3c ea31 54bc
00000010: 23ab 403c 21f6 fc3c 501c 273c 6a15 9dbc
00000020: 354c 993b 3e57 aebc

predictor/l3/W f4 [10, 100]
-0.0212563 0.41961983 0.1261844 -0.18069543 0.04907151 -0.08007224 -0.09589971 -0.10941277
0.031176805 0.18744981 -0.072184674 -0.078131825 0.34649432 -0.033572983 -0.0597095 -0.28289455
0.044344716 0.091313176 -0.13084048 0.13802242 0.17323892 -0.16314244 -0.23865852 0.044491027
-0.17601323 -0.08472904 -0.33891675 0.23380572 0.014610401 -0.01108586 -0.116778806 0.027919555
-0.11114879 -0.19364429 0.10921261 -0.045266293 -0.20330568 0.15128979 -0.09314112 0.105304584
0.104495846 0.06030386 0.08302948 -0.057453975 0.1031241 -0.11604886 0.05570193 -0.2935825
0.061533116 0.14598931 -0.28867918 0.08122618 -0.04140417 0.11913249 -0.06473129 -0.3783807
-0.029665982 -0.091915935 0.04664658 -0.2942919 0.016292471 0.0020931 -0.05740113 0.00027543274
0.048284855 -0.30156177 -0.10378421 -0.19070308 -0.12890713 -0.20963022 -0.087587215 0.31296402
0.13539083 0.23630793 0.21439034 0.051829647 -0.039533433 0.061912067 -0.0077470895 -0.34888473
-0.03932509 0.12419996 -0.22707704 -0.02441662 -0.027599616 0.075335436 0.12733346 -0.10896932
-0.33415148 -0.13355112 -0.20752247 0.061629537 -0.14469755 -0.32854742 -0.1407247 0.12519696
-0.020455401 -0.015290003 0.21301654 0.008151799 0.16132976 0.22840106 0.08818393 -0.19212511
-0.13774659 0.04433888 -0.03197564 -0.22998078 -0.1602453 -0.16095929 -0.13587134 0.17904527
-0.14703745 0.17359982 0.012439459 0.22435705 -0.06619827 0.23874353 0.07129406 -0.24678835
-0.02681458 -0.24597758 0.12078328 -0.14617361 -0.035048682 -0.27033758 0.16570431 0.03585775
-0.04159731 0.07966583 0.12328456 0.057357635 -0.3832106 0.010568194 -0.20138966 -0.18946514
-0.26862228 -0.1735427 0.1716034 -0.11338655 -0.04194527 -0.19672276 0.068885855 0.12484619
0.33314103 -0.15524495 -0.30727825 0.15115252 0.059358444 0.4870468 0.025041144 -0.31462365
-0.053592652 -0.18441902 -0.23217225 0.20674577 -0.2931826 -0.26459587 0.01762539 0.0038975265
-0.027968386 0.10997183 0.32692137 -0.10237574 -0.059421614 -0.20249557 -0.033367086 0.09997096
-0.3345371 -0.2945555 0.2129262 -0.19042261 0.28169715 -0.21594958 -0.027415654 -0.030005237
0.015108995 -0.16663863 -0.075949505 0.03350961 0.1609703 0.082337014 0.29002437 0.0927311
-0.00071235496 -0.0020572965 -0.028097205 0.12438857 0.020462057 0.10382607 -0.1586465 0.03980145
0.15839304 -0.4128595 0.28914228 0.025144855 -0.24570116 0.106020495 -0.22721699 0.039137505
-0.087656856 0.02281812 0.005634743 -0.0004387833 -0.2067621 -0.06571637 -0.041428436 0.11343509
-0.010863696 -0.11681497 0.12890391 -0.179478 -0.01147788 -0.002110625 -0.051745795 -0.043962803
-0.0207538 -0.026091684 -0.26531073 0.06792034 -0.28081688 -0.23451649 0.30853537 0.23161535
0.12925132 0.056780346 -0.052375067 0.1113885 -0.03395704 0.13211675 0.090679176 -0.59863484
0.1403477 -0.23999424 -0.08997045 0.14342284 0.1454052 0.14181727 7.567636e-05 -0.27226335
-0.0067359526 0.107887305 -0.14376478 -0.03939785 0.09457839 0.031387497 0.232827 -0.08696567
0.16572835 -0.12002457 -0.006156011 0.02309793 -0.06948349 0.12954484 -0.07512126 0.0045636464
00000000: b121 aebc 69d8 d63e 7c36 013e 3908 39be
00000010: 35ff 483d eafc a3bd 1167 c4bd cd13 e0bd
00000020: 8066 ff3c d8f2 3f3e 8fd5 93bd 9403 a0bd
00000030: b467 b13e d383 09bd f391 74bd 8ed7 90be
00000040: cea2 353d 6702 bb3d 0cfb 05be c055 0d3e
00000050: 8b65 313e d00e 27be e662 74be 393c 363d
00000060: d03c 34be 6b86 adbd 7f86 adbe c46a 6f3e
00000070: 7760 6f3c 78a1 35bc ba29 efbd 8db7 e43c
00000080: faa1 e3bd b04a 46be dcaa df3d 2669 39bd
00000090: 5d2f 50be b6eb 1a3e c6c0 bebd eea9 d73d
000000a0: eb01 d63d 2e01 773d 5c0b aa3d dc54 6bbd
000000b0: ba32 d33d 06ab edbd b527 643d 7250 96be
000000c0: 260a 7c3d 397e 153e c2cd 93be e959 a63d
000000d0: 6b97 29bd bcfb f33d d791 84bd 1dbb c1be
000000e0: 1306 f3bc 6c3e bcbd 7c10 3f3d 6ead 96be
000000f0: ca77 853c 642c 093b 731d 6bbd f567 9039
00000100: 57c6 453d 4e66 9abe d18c d4bd ab47 43be
00000110: 3b00 04be 4ea9 56be ed60 b3bd d23c a03e
00000120: e5a3 0a3e b5fa 713e 2489 5b3e 534b 543d
00000130: cfed 21bd 8297 7d3d 4cdb fdbb 05a1 b2be
00000140: 5813 21bd 8c5c fe3d e286 68be 5d05 c8bc
00000150: 9718 e2bc 7749 9a3d b463 023e 4f2b dfbd
00000160: e715 abbe a0c1 08be c580 54be 416f 7c3d
00000170: 982b 14be 5e37 a8be 231a 10be a233 003e
00000180: 1692 a7bc ec82 7abc 0221 5a3e 208f 053c
00000190: a133 253e f8e1 693e c799 b43d 72bc 44be
000001a0: 710d 0dbe af9c 353d e4f8 02bd 1580 6bbe
000001b0: 5817 24be 83d2 24be db21 0bbe a557 373e
000001c0: fc90 16be 27c4 313e dfce 4b3c dbbd 653e
000001d0: f592 87bd 2f79 743e 9f02 923d 16b6 7cbe
000001e0: 40aa dbbc 8ce1 7bbe 395d f73d 89ae 15be
000001f0: 358f 0fbd b069 8abe 64ae 293e 93df 123d
00000200: f161 2abd d727 a33d 9e7c fc3d d7ef 6a3d
00000210: 2e34 c4be 3826 2d3c 1739 4ebe 2603 42be
00000220: dc88 89be 2db5 31be cdb8 2f3e 3537 e8bd
00000230: cece 2bbd b171 49be 0714 8d3d 5caf ff3d
00000240: 7691 aa3e 88f8 1ebe 9353 9dbe bac7 1a3e
00000250: d721 733d 335e f93e 1623 cd3c 5a16 a1be
00000260: f883 5bbd 57d8 3cbe 90be 6dbe 2ab5 533e
00000270: 081c 96be 1c79 87be 1f63 903c a56d 7f3b
00000280: f51d e5bc e938 e13d 3d62 a73e 5faa d1bd
00000290: 1464 73bd 005b 4fbe edab 08bd 93bd cc3d
000002a0: 7248 abbe facf 96be 5309 5a3e 25fe 42be
000002b0: 9c3a 903e e321 5dbe cb96 e0bc 8bcd f5bc
000002c0: b88b 773c 51a3 2abe 6a8b 9bbd 5f41 093d
000002d0: 66d5 243e 4fa0 a83d 137e 943e cee9 bd3d
000002e0: 55bd 3aba b5d3 06bb 1c2c e6bc 6fbf fe3d
000002f0: 0ba0 a73c c3a2 d43d 3a74 22be d806 233d
00000300: c931 223e 5262 d3be 750a 943e 95fc cd3c
00000310: 1699 7bbe 4621 d93d 92ab 68be a64e 203d
00000320: 7085 b3bd 11ed ba3c a6a3 b83b 7f0c e6b9
00000330: 72b9 53be 4e96 86bd ddb0 29bd a850 e83d
00000340: a5fd 31bc b03c efbd 63ff 033e 15c9 37be
00000350: b80d 3cbc 6952 0abb 66f3 53bd 5712 34bd
00000360: e003 aabc 3abe d5bc cfd6 87be d219 8b3d
00000370: 3bc7 8fbe 1725 70be 59f8 9d3e 932c 6d3e
00000380: 755a 043e 8292 683d 3d87 56bd a71f e43d
00000390: 8a16 0bbd 9d49 073e 01b6 b93d 2240 19bf
000003a0: 4fb7 0f3e 0dc1 75be 6d42 b8bd 70dd 123e
000003b0: 1ae5 143e 8c38 113e 70b4 9e38 1a66 8bbe
000003c0: 44b9 dcbb 05f4 dc3d 1337 13be a45f 21bd
000003d0: 51b2 c13d 2d90 003d 336a 6e3e 0f1b b2bd
000003e0: b1b4 293e 71cf f5bd 5db8 c9bb df37 bd3c
000003f0: 5c4d 8ebd 67a7 043e 2dd9 99bd a48a 953b
