my.model (npz, 741064 bytes, 6 tensors)

predictor/l3/W f4 [10, 200]
0.07335984 -0.23046371 0.06184595 -0.06922571 -0.09971833 -0.2513304 0.07838207 -0.04557141
-0.034840252 0.03975602 -0.03951469 -0.21619283 -0.06449138 -0.18866201 0.0400298 0.11343849
0.08735267 -0.02324847 -0.012221041 0.05179714 0.009320595 0.09920128 -0.22482482 0.00847052
0.06972598 0.003812909 -0.0841403 0.021698825 -0.031553514 0.053899046 0.0074448125 0.0321905
-0.08391388 0.0430316 -0.12628885 -0.0028920341 -0.10045198 0.09985106 -0.07595274 0.07887986
0.12291264 -0.18544596 0.13267124 0.011527091 0.06164623 0.0059122792 -0.1102666 0.028629657
-0.005224231 -0.25252187 -0.2062994 -0.027716111 0.036588665 -0.042699467 -0.1368381 0.011961353
-0.18756507 0.21689218 0.121732 -0.013520555 0.09379233 0.054692257 -0.021150973 -0.13155271
-0.25980994 0.057188928 -0.2730658 -0.25784993 0.1381041 -0.123621434 0.051881842 0.11045216
-0.0034443457 -0.04154629 0.05316681 -0.029440211 0.06949143 -0.285306 0.024037426 0.0015120354
0.13610649 -0.007624156 0.18676049 -0.0056888056 -0.009341554 0.0035109292 -0.019890055 -0.012825725
-0.16852064 -0.080435276 0.13920544 -0.14365819 -0.038858604 -0.17491332 -0.0044338373 0.111225285
-0.06676438 0.046454426 0.046086438 0.07218034 -0.015128127 -0.10675432 -0.14401326 0.12212972
-0.046136 -0.1997267 -0.023033345 -0.04267217 0.1527293 -0.094328426 -0.10625788 -0.066913016
-0.06919441 0.012616298 -0.04718455 -0.018247252 -0.1810193 -0.1677648 -0.006830746 0.091377825
0.10012871 -0.23119143 0.02368439 -0.1592884 -0.17346822 0.040215734 0.11881384 0.088632494
0.1899514 0.26261145 -0.014513907 0.08291115 0.019436847 -0.15815686 0.21570395 -0.12422474
-0.016911216 -0.2874404 -0.020418635 0.076832525 -0.06342644 -0.11856812 0.07227525 0.06152018
-0.30086818 0.10983681 0.085909404 -0.018441336 0.084572464 -0.069942266 -0.111629955 -0.03603193
0.14264457 0.041475028 -0.07163899 -0.26010895 -0.08983313 0.07045619 -0.063574985 -0.04663602
0.20608218 -0.26274976 0.13237709 -0.06087971 -0.12993321 0.07653708 -0.24143027 -0.183012
-0.04744297 -0.087500505 -0.1439486 -0.059599183 0.09976513 -0.24938211 0.20313396 -0.049517095
-0.08677444 0.09276488 -0.021637037 0.12224303 -0.13590527 0.061753083 -0.03336269 -0.114418745
0.12621231 -0.17354457 0.16379425 -0.06506149 -0.0055056373 -0.22365128 0.044484433 -0.12184409
-0.10740722 0.037198003 -0.07476808 0.09723276 0.11245653 -0.2063628 -0.2855121 0.13182706
0.14237195 0.08963129 0.032187987 -0.22232144 0.05167888 -0.0022984764 0.043157358 -0.09290825
-0.06691741 0.07250049 -0.046477538 0.22487926 0.092537045 0.099974096 0.04691669 0.14929813
0.25407237 0.086449645 0.10761067 -0.1596703 0.07314176 -0.02826619 -0.14798854 0.029703846
0.028005961 -0.037635818 0.21991424 -0.14820807 -0.06043034 -0.004765754 -0.038291886 0.059863444
0.0112761855 0.20183949 0.15717506 -0.18426019 0.19703834 -0.07834716 -0.25215524 -0.08676788
-0.112058446 -0.093062975 -0.07605055 -0.050326247 0.2798731 0.116520666 0.035545573 -0.1573007
0.0013865258 0.018190539 0.22473775 -0.09359844 -0.13088016 0.0010142935 0.03545664 0.12145241
00000000: af3d 963d aefe 6bbe 2e52 7d3d 36c6 8dbd
00000010: 2039 ccbd 61ae 80be c786 a03d 16a9 3abd
00000020: a7b4 0ebd 35d7 223d 28da 21bd a761 5dbe
00000030: 0e14 84bd 9d30 41be 4af6 233d 7052 e83d
00000040: f5e5 b23d 9373 bebc c33a 48bc 3d29 543d
00000050: 69b5 183c 0a2a cb3d 7a38 66be f0c7 0a3c
00000060: 7fcc 8e3d ffe1 793b c051 acbd bcc1 b13c
00000070: 423e 01bd 3fc5 5c3d 9df3 f33b 30da 033d
00000080: 0adb abbd e741 303d dd51 01be 4888 3dbb
00000090: c5b9 cdbd b67e cc3d 1c8d 9bbd c48b a13d
000000a0: 9fb9 fb3d 8ce5 3dbe f8da 073e 20dc 3c3c
000000b0: c280 7c3d cbbb c13b 75d3 e1bd be88 ea3c
000000c0: 0730 abbb 8c4a 81be 2640 53be e60c e3bc
000000d0: ffdd 153d a3e5 2ebd 491f 0cbe 8df9 433c
000000e0: 0f11 40be fc18 5e3e a04e f93d 5185 5dbc
000000f0: 3116 c03d fd04 603d ce44 adbc c1b5 06be
00000100: cf05 85be f03e 6a3d 48cf 8bbe e804 84be
00000110: 296b 0d3e 3c2d fdbd 0e82 543d be34 e23d
00000120: 88ba 61bb 712c 2abd 71c5 593d 992c f1bc
00000130: 8651 8e3d a113 92be 23ea c43c 7d2f c63a
00000140: 805f 0b3e 0ed4 f9bb 243e 3f3e 2969 babb
00000150: 510d 19bc 9e17 663b 78f0 a2bc fd22 52bc
00000160: ad90 2cbe 40bb a4bd df8b 0e3e 221b 13be
00000170: 332a 1fbd 7a1c 33be b949 91bb 15ca e33d
00000180: c3bb 88bd ff46 3e3d 22c5 3c3d 49d3 933d
00000190: f7db 77bc 02a2 dabd 3678 13be 261f fa3d
000001a0: 1af9 3cbd 2885 4cbe 6db0 bcbc 03c9 2ebd
000001b0: 1265 1c3e 432f c1bd bb9d d9bd b109 89bd
000001c0: cdb5 8dbd 97b4 4e3c 9644 41bd 437b 95bc
000001d0: 205d 39be 89ca 2bbe 73d4 dfbb 4c24 bb3d
000001e0: 4810 cd3d 72bd 6cbe c405 c23c 801c 23be
000001f0: a7a1 31be 41b9 243d ac54 f33d f484 b53d
00000200: 9f82 423e 0275 863e bdcb 6dbc 52cd a93d
00000210: 063a 9f3c dff3 21be 7fe1 5c3e 8a69 febd
00000220: 6489 8abc 632b 93be fb44 a7bc 5f5a 9d3d
00000230: b9e5 81bd d8d3 f2bd 0c05 943d 96fc 7b3d
00000240: 650b 9abe 1ff2 e03d 45f1 af3d 4912 97bc
00000250: 5434 ad3d e43d 8fbd 3f9e e4bd 3896 13bd
00000260: 6b11 123e b8e1 293d 76b7 92bd 002d 85be
00000270: 6ffa b7bd 564b 903d 9a33 82bd 6905 3fbd
00000280: 3507 533e 2387 86be dc8d 073e 015d 79bd
00000290: 360d 05be 79bf 9c3d 7f39 77be 7f67 3bbe
000002a0: 8f53 42bd 7733 b3bd 4367 13be 461e 74bd
000002b0: a951 cc3d 065e 7fbe 5902 503e 70d2 4abd
000002c0: ccb6 b1bd 83fb bd3d 2840 b1bc 8e5a fa3d
000002d0: c02a 0bbe cdf0 7c3d 51a7 08bd 6054 eabd
000002e0: cd3d 013e abb5 31be aeb9 273e f53e 85bd
000002f0: a268 b4bb d704 65be 4f35 363d 6589 f9bd
00000300: 51f8 dbbd ef5c 183d 0220 99bd f821 c73d
00000310: 9c4f e63d c550 53be a42e 92be acfd 063e
00000320: f4c9 113e 9c90 b73d 8dd7 033d 3ba8 63be
00000330: 3cad 533d 09a2 16bb c5c5 303d ae46 bebd
00000340: ff0b 89bd 237b 943d 3b5f 3ebd c046 663e
00000350: 1084 bd3d 38bf cc3d b72b 403d 9ce1 183e
00000360: c615 823e 830c b13d fc62 dc3d 9c80 23be
00000370: 59cb 953d 7f8e e7bc 4f8a 17be 7b55 f33c
00000380: c26c e53c 0428 1abd 3331 613e dbc3 17be
00000390: ce85 77bd 0b2a 9cbb f4d7 1cbd 5f33 753d
000003a0: c0bf 383c 03af 4e3e 80f2 203e b4ae 3cbe
000003b0: 6bc4 493e 7a74 a0bd 7e1a 81be 5cb3 b1bd
000003c0: e67e e5bd cd97 bebd 64c0 9bbd e522 4ebd
000003d0: 874b 8f3e 63a2 ee3d 3c98 113d 6f13 21be
000003e0: 16bc b53a 5304 953c a721 663e 8ab0 bfbd
000003f0: 7305 06be 0bf2 843a fb3a 113d 0bbc f83d

predictor/l1/b f4 [200]
0.05655763 -0.012670289 0.035055183 -0.018333176 -0.0333721 0.006508443 0.033914115 0.029299472
0.08602894 -0.0731688 0.0062024663 0.0134841055 -0.0785121 0.0062945946 0.03783995 -0.008541601
0.007851117 0.05138505 0.051310804 -0.053805593 0.06221836 0.00991529 -0.020197585 0.033702213
0.05114454 0.028411828 0.012538841 0.026102163 0.05977984 0.089426756 -0.068498224 0.0057685412
-0.03698767 0.019013537 0.096869044 0.06006896 0.016018448 0.0049873944 0.048089504 0.07706212
-0.017703302 0.0435486 0.07676837 0.0072851004 -0.01932928 -3.717764e-05 -0.01819333 0.060640633
0.04054923 0.019714838 0.013561272 0.020253588 -0.017815018 -0.023512943 0.03876627 0.037521545
0.002364475 -0.02564709 0.04579926 0.034636423 -0.011468283 0.05449123 0.05926314 0.021904279
0.055125535 0.11672123 -0.015919603 -0.021140408 -0.01985755 -0.012342173 0.05503876 -0.015611247
0.061609488 0.06581662 0.086948685 0.0037228242 -0.055557545 -0.026212975 0.07544551 0.016811747
0.073100865 -0.0137710795 -0.01664046 0.0045803245 0.034296315 -0.004588209 0.0021046554 -0.05785207
0.06881045 0.008258302 0.004694797 0.100550294 0.043472886 0.0075738346 -0.0013230558 -0.021150887
0.024607193 -0.0036148988 0.0446016 0.061510988 -0.007926576 0.05476075 -0.011906988 0.029651292
-0.015857747 0.03144831 0.012715725 0.13105187 -0.0703027 0.00021381333 0.04221005 -0.01997104
0.019112747 0.059650883 0.051483165 -0.020207707 -0.013998639 0.011962848 -0.008281027 0.018118083
0.015152759 0.04317076 0.014543101 0.052010417 0.012105574 0.028551713 -0.031245504 0.004536625
-0.01724327 0.03208877 0.0061489013 0.06462708 -0.0013076913 -0.050370004 0.06112654 -0.009277609
0.022343127 0.018680332 0.006783406 -0.04452248 -0.013530248 -0.025001673 -0.013204598 0.059315234
0.09358457 0.022182046 0.05938714 0.02900905 0.079011925 -0.003274184 0.026498416 -0.0373009
-0.0006847786 -0.037625402 0.010322314 0.05782097 -0.018901905 0.03292066 0.094882555 0.035841025
-0.00028243597 0.030491868 -0.001555932 0.012046812 0.025977377 0.0028312034 -0.0345419 0.02589719
-0.038490366 -0.04039786 0.09771773 0.046868745 0.045892682 -0.012978331 -0.055982552 0.030576658
-0.00643545 0.029866219 -0.002357555 0.021638501 -0.038223095 0.041763432 -0.047681842 0.05449069
0.027328542 0.0061301896 0.05158151 0.0073825824 0.01423297 -0.023642147 -0.00073254365 -0.01648738
0.003844697 -0.048625447 -0.0010166955 0.019659445 -0.022936504 -0.017880995 -0.021739509 0.024705429
00000000: f9a8 673d 0b97 4fbc 0696 0f3d 752f 96bc
00000010: 2fb1 08bd c744 d53b 87e9 0a3d 7205 f03c
00000020: f12f b03d 86d9 95bd 0f3e cb3b 70ec 5c3c
00000030: f4ca a0bd e342 ce3b 10fe 1a3d 12f2 0bbc
00000040: f9a1 003c 2179 523d 472b 523d 4163 5cbd
00000050: aed8 7e3d be73 223c 6875 a5bc 550b 0a3d
00000060: f07c 513d ecbf e83c b66f 4d3c 34d4 d53c
00000070: b5db 743d 6025 b73d cc48 8cbd 0806 bd3b
00000080: 6280 17bd 47c2 9b3c 4763 c63d df0a 763d
00000090: 1f39 833c 4c6d a33b 80f9 443d bfd2 9d3d
000000a0: 8406 91bc 0460 323d bc38 9d3d dab7 ee3b
000000b0: 7058 9ebc 30ef 1bb8 2e0a 95bc 5062 783d
000000c0: f316 263d 0381 a13c 1930 5e3c daea a53c
000000d0: cdf0 91bc 379e c0bc 61c9 1e3d 31b0 193d
000000e0: 4ff5 1a3b d919 d2bc 0198 3b3d ecde 0d3d
000000f0: 77e5 3bbc 3232 5f3d e8bd 723d 9a70 b33c
00000100: 50cb 613d 8a0b ef3d d469 82bc a62e adbc
00000110: 4dac a2bc d336 4abc 5370 613d 51c6 7fbc
00000120: 3b5a 7c3d ddca 863d 2712 b23d a0fa 733b
00000130: 4f90 63bd 98bc d6bc 2d83 9a3d cab8 893c
00000140: e8b5 953d 18a0 61bc 9351 88bc 8c16 963b
00000150: 4b7a 0c3d b058 96bb 42ee 093b 4bf6 6cbd
00000160: 7eec 8c3d d44d 073c d0d6 993b 50ed cd3d
00000170: a010 323d ee2d f83b 636a adba a044 adbc
00000180: 0695 c93c f0e7 6cbb 2bb0 363d f2f2 7b3d
00000190: 78de 01bc cf4c 603d 8715 43bc 44e7 f23c
000001a0: 1be8 81bc f1cf 003d 9e55 503c 7632 063e
000001b0: ddfa 8fbd 1433 6039 72e4 2c3d 4e9a a3bc
000001c0: 5692 9c3c 7c54 743d 03e0 523d a28a a5bc
000001d0: 8c5a 65bc d2ff 433c 25ad 07bc 606c 943c
000001e0: 4743 783c d3d3 303d 3046 6e3c e008 553d
000001f0: 7556 463c 48e5 e93c 92f6 ffbc f8a7 943b
00000200: c241 8dbc 846f 033d b97c c93b 345b 843d
00000210: d766 abba c750 4ebd d35f 7a3d 1d01 18bc
00000220: ef08 b73c 7f07 993c 5547 de3b 345d 36bd
00000230: f9ad 5dbc 4fd0 ccbc 1958 58bc 88f4 723d
00000240: 44a9 bf3d 1fb7 b53c ee3f 733d 63a4 ed3c
00000250: 01d1 a13d b193 56bb 3513 d93c d4c8 18bd
00000260: b782 33ba 181d 1abd ec1e 293c aed5 6c3d
00000270: 2bd8 9abc d0d7 063d c951 c23d 0ace 123d
00000280: ea13 94b9 15ca f93c 6af0 cbba fe5f 453c
00000290: 82ce d43c b68b 393b cf7b 0dbd 5826 d43c
000002a0: 13a8 1dbd 3a78 25bd 3c20 c83d 71f9 3f3d
000002b0: f7f9 3b3d 11a3 54bc f64d 65bd e67b fa3c
000002c0: 78e0 d2bb 00aa f43c 3681 1abb 3a43 b13c
000002d0: d28f 1cbd 2210 2b3d 094e 43bd a131 5f3d
000002e0: 1be0 df3c c2df c83b 2247 533d 97e9 f13b
000002f0: 6731 693c 2dad c1bc 2c08 40ba 8b10 87bc
00000300: 50f7 7b3b 7a2b 47bd a442 85ba d80c a13c
00000310: 56e5 bbbc 2a7b 92bc 0e17 b2bc 0a63 ca3c

predictor/l3/b f4 [10]
-0.027380105 -0.017983185 -0.0006846408 -0.037748527 0.019593306 0.023326732 -0.02118858 -0.035974465
0.05316369 0.0065411814
00000000: 3e4c e0bc 7951 93bc 7779 33ba 339e 1abd
00000010: 2482 a03c b417 bf3c ac93 adbc f659 13bd
00000020: 2bc2 593d 6857 d63b

predictor/l2/b f4 [200]
0.032542977 0.03354423 0.028826252 0.0014538828 0.058742706 0.06263351 -0.03363155 0.03900584
0.025560774 0.073846005 0.025423398 0.01873129 0.05067416 0.010909781 -0.042759176 -0.0127466
-0.013453557 -0.01600586 0.036918465 0.019725176 0.008902099 -0.018949209 0.060521085 -0.015463795
0.052884918 0.010953409 0.023723464 0.053196985 0.033657327 -0.016875545 -0.020640662 5.7602025e-05
-0.01113304 0.02053948 0.05040872 -0.0024807113 0.005032672 -0.0010170435 -0.0052558635 0.019649614
0.027286295 0.008946301 0.04314481 0.014048753 -0.0029236097 0.033862013 0.0544527 0.037261486
0.029726932 0.0936077 -0.016677782 -0.03034014 -0.027623035 -0.0030003816 -0.0026815792 0.054495454
0.06015692 -0.021433195 0.05659043 0.07552889 0.0016887309 0.019692544 0.032360177 -0.023334725
0.045438033 -0.03612605 0.040192824 0.019650744 0.023096152 0.08312571 -0.0062012887 -0.054849476
0.030607771 0.017281285 -0.032046404 0.015657395 0.038052976 -0.0014036371 0.046727367 0.029623527
-0.051334057 -0.005318659 -0.041747913 0.03375409 0.047788683 0.045642447 -0.015078624 0.042477716
0.0679459 -0.017574392 0.019484902 0.03275344 0.041362245 0.054258853 0.030176923 -0.029357383
0.05548341 -0.032910593 -0.01688673 0.024266867 -0.004384313 0.056052443 0.006428383 0.044955373
-0.014450578 -0.035612874 -0.003329393 0.07063739 0.05908698 0.039839085 0.027312651 -6.7305635e-05
0.056775436 -0.04780899 -0.010212776 0.018063705 0.017185388 0.05983902 -0.0066969213 0.02526555
-0.009490487 0.01949722 -0.02357638 0.05027563 -0.03730882 -0.032055914 0.07042157 0.03757206
0.060132306 0.028951995 0.00022430855 0.032754738 0.050685808 0.053159487 -0.0059450986 0.057809334
-0.03457556 0.032885388 0.026928224 0.060511753 0.028983723 0.069446966 0.07158199 -0.006116339
0.044801496 0.06883164 -0.01688134 0.003026933 0.014807652 -0.00015000661 0.046232242 0.02135479
-0.008213815 0.0066944384 0.046340056 0.03460158 0.019756472 0.007749214 0.051204715 0.056935597
0.0556695 -0.012194613 -0.034123328 0.1017737 0.062047597 0.02762494 0.039954327 0.030590128
-0.0007293483 0.018516695 0.01663864 0.06851007 0.008113048 0.09353689 0.014066015 0.042838577
0.0713542 -0.0016668222 0.0783983 -0.0080796555 0.0049064024 0.06552789 0.058863323 0.032966215
0.04521771 0.06472043 0.02238995 0.029259482 0.040064786 0.012958549 0.045529857 0.0483575
-0.017015358 0.0425267 0.07075867 0.021465382 0.0076397755 -0.0017076909 0.03265306 -0.0027869763
00000000: c94b 053d ad65 093d 0825 ec3c 3690 be3a
00000010: 319c 703d ff45 803d 3cc1 09bd 96c4 1f3d
00000020: d464 d13c 933c 973d bb44 d03c 5d72 993c
00000030: b58f 4f3d f0be 323c 3f24 2fbd 1ed7 50bc
00000040: 4f6c 5cbc b91e 83bc d137 173d b196 a13c
00000050: 1cda 113c 5f3b 9bbc f5e4 773d db5b 7dbc
00000060: db9d 583d ed75 333c b657 c23c 15e5 593d
00000070: 44dc 093d 953e 8abc 9b16 a9bc b499 7138
00000080: 5b67 36bc 6942 a83c 6079 4e3d 6e93 22bb
00000090: 1de9 a43b 514e 85ba 6139 acbb 3af8 a03c
000000a0: 8287 df3c 8293 123c 9db8 303d be2c 663c
000000b0: 089a 3fbb e5b2 0a3d cb09 5f3d 809f 183d
000000c0: e585 f33c 65b5 bf3d d89f 88bc e38b f8bc
000000d0: b449 e2bc 0da2 44bb 6fbd 2fbb a036 5f3d
000000e0: 1a67 763d ab94 afbc 5ecb 673d e4ae 9a3d
000000f0: 6858 dd3a 4252 a13c 1b8c 043d 7728 bfbc
00000100: 3b1d 3a3d e9f8 13bd 3ba1 243d 99fa a03c
00000110: 2434 bd3c d03d aa3d 2e34 cbbb d8a9 60bd
00000120: 26bd fa3c 7b91 8d3c 1743 03bd f043 803c
00000130: 70dd 1b3d 3ffa b7ba 3265 3f3d 0aad f23c
00000140: a943 52bd 2548 aebb dcff 2abd bb41 0a3d
00000150: 11be 433d 93f3 3a3d 550c 77bc 1dfd 2d3d
00000160: 3827 8b3d 2cf8 8fbc cd9e 9f3c 7928 063d
00000170: 756b 293d 883e 5e3d 9835 f73c e57e f0bc
00000180: 9242 633d 42cd 06bd 0a56 8abc 4fcb c63c
00000190: 48aa 8fbb 3f97 653d 2fa5 d23b 2023 383d
000001a0: 1ec2 6cbc cede 11bd f231 5abb 56aa 903d
000001b0: 3005 723d 4f2e 233d c8be df3c 7026 8db8
000001c0: 5c8d 683d 5cd3 43bd 7d53 27bc 56fa 933c
000001d0: 5fc8 8c3c c319 753d d971 dbbb b3f9 ce3c
000001e0: fd7d 1bbc a2b8 9f3c 4123 c1bc d2ed 4d3d
000001f0: 22d1 18bd 104d 03bd 2f39 903d 29e5 193d
00000200: 4b4d 763d bc2c ed3c 5e34 6b39 d529 063d
00000210: ec9b 4f3d c3bd 593d 1acf c2bb 7bc9 6c3d
00000220: 1a9f 0dbd d4b2 063d 9498 dc3c 2cdb 773d
00000230: 466f ed3c 363a 8e3d 9499 923d 926b c8bb
00000240: c681 373d 9af7 8c3d bc4a 8abc 825f 463b
00000250: cb9b 723c 184b 1db9 055e 3d3d 3ef0 ae3c
00000260: 3d93 06bc 055d db3b 12cf 3d3d 63ba 0d3d
00000270: 53d8 a13c 1eed fd3b 09bc 513d 4d35 693d
00000280: b405 643d eacb 47bc e7c4 0bbd bb6e d03d
00000290: 9f25 7e3d b34d e23c 26a7 233d 2698 fa3c
000002a0: bc31 3fba 53b0 973c c24d 883c 024f 8c3d
000002b0: 97ec 043c 4590 bf3d 2575 663c 8177 2f3d
000002c0: 2722 923d 4679 daba 4a8f a03d 8860 04bc
000002d0: e3c5 a03b 7d33 863d ab1a 713d 9507 073d
000002e0: 3536 393d 258c 843d 216b b73c 95b1 ef3c
000002f0: f91a 243d 1850 543c 847d 3a3d 8412 463d
00000300: cb63 8bbc 7a30 2e3d ece9 903d 2bd8 af3c
00000310: 1557 fa3b 99d4 dfba 37bf 053d b4a5 36bb

predictor/l1/W f4 [200, 784]
-0.005108511 2.8270435e-06 -0.025421914 0.021185786 -0.02584686 -0.027891485 -0.03701193 0.006479836
0.06184945 -0.03535922 -0.02639136 -0.00023759606 0.034707397 -0.01886278 -0.03238122 -0.035086304
0.0058866283 -0.021176655 -0.030950114 0.04157923 0.067134276 0.019779973 -0.022819547 -0.049214236
-0.024819613 -0.025919326 -0.045123648 0.08120441 -0.03265683 0.016750354 0.024110045 -0.058230598
-0.049579926 -0.05789536 -0.04310566 -0.09116037 -0.042945866 0.057626538 -0.016687319 -0.015853437
-0.12227705 -0.04999277 -0.06844974 -0.01918629 -0.06718831 -0.12524153 -0.032376308 -0.0101236785
-0.06582472 -0.04942709 -0.036170777 -0.037478942 -0.0012115719 0.034044135 0.04488024 -0.011622487
-0.022823539 -0.03506516 -0.054261405 0.010421868 -0.03113142 -0.004622701 -0.07683 -0.0993491
-0.030964574 -0.019323686 -0.07264514 -0.037056543 -0.13552792 -0.07961117 -0.12715173 -0.03704344
-0.059775174 0.002171497 0.015657237 -0.033630684 -0.0104240095 0.011748901 -0.038318418 -0.015252912
0.04436931 0.0077710925 -0.094738394 -0.0017685781 0.026094593 0.016833987 -0.03738128 -0.02395508
0.042049732 -0.034861285 -0.10606685 -0.028638925 -0.0493973 -0.15216498 -0.12895542 -0.08497329
-0.058123272 -0.12631 -0.18569963 -0.15527466 -0.06996092 -0.015013229 0.08560504 0.038193244
0.09759559 -0.025135685 -0.0113181565 -0.00929003 0.003236246 -0.043541104 0.03741804 -0.018514201
0.05711991 -0.02778973 0.014030649 0.07443546 0.040753778 0.017079847 -0.04874608 0.045830477
0.022787934 -0.09699425 -0.10284671 -0.0015492025 -0.0012405628 0.06635831 -0.089049526 -0.11216935
-0.08484404 -0.061086815 -0.037559044 0.0020834256 -0.08216131 -0.032640465 -0.04756907 0.048586044
0.03617249 0.048480764 0.07665045 -0.012243137 -0.072211675 -0.026819006 0.090149134 0.068302296
0.050029147 -0.02123032 0.14002599 0.14392346 0.038787298 0.009792943 -0.042247374 0.0058029243
-0.022706177 0.025690943 -0.12241845 -0.03837948 -0.072456226 -0.08323872 -0.12580854 -0.14724545
-0.16995677 -0.16097204 -0.10373652 -0.09866631 -0.03809487 -0.007403029 -0.019437121 -0.0709336
-0.035500772 0.05099301 0.03979801 0.011298572 -0.05163357 -0.07510259 0.03246432 0.06909121
0.041716862 -0.034128487 -0.007738963 0.011520154 0.012798036 0.0030972634 0.04594382 0.002108826
0.044205077 -0.0072167492 -0.16716108 -0.27117568 -0.22913475 -0.08899525 -0.11865229 -0.11541532
-0.06802735 -0.066246085 -0.043729752 0.0017869767 0.0076751234 -0.0056158127 0.053907864 -0.011898259
-0.074734345 -0.041261546 0.06065649 -0.049608268 0.09773358 -0.0003392155 0.05603957 0.0010081602
0.10218109 0.052862294 0.15238361 -0.041759115 0.03187694 -0.036223743 -0.11850298 -0.27043316
-0.26389566 -0.12354953 -0.1415505 -0.110482566 -0.06965256 -0.0594459 -0.011297286 -0.04014682
0.0064025954 0.028253429 0.015922356 0.023139717 -0.06360626 -0.016529389 -0.08613643 -0.07194109
-0.007978277 -0.01663082 -0.04233847 0.047413073 0.008299876 0.058460247 0.09829328 0.028655818
-0.015500038 -0.016188094 -0.052048083 -0.051947236 -0.15678625 -0.13960283 -0.24651605 -0.11787039
-0.07402831 -0.10013886 -0.082882196 0.010688542 0.0646723 0.004555818 0.09323925 0.04196927
00000000: 4c65 a7bb 3db8 3d36 9e41 d0bc d08d ad3c
00000010: cbbc d3bc af7c e4bc d299 17bd ce54 d43b
00000020: d955 7d3d d4d4 10bd b232 d8bc 3523 79b9
00000030: 5829 0e3d 1e86 9abc 2ca2 04bd a8b6 0fbd
00000040: 9ee4 c03b aa7a adbc 188b fdbc fc4e 2a3d
00000050: b27d 893d 9c09 a23c 0ff0 babc de94 49bd
00000060: 8052 cbbc c454 d4bc 93d3 38bd 7f4e a63d
00000070: 2bc3 05bd 0a38 893c 6e82 c53c 3583 6ebd
00000080: 5214 4bbd af23 6dbd 8f8f 30bd 4ab2 babd
00000090: 01e8 2fbd ce09 6c3d d8b3 88bc 11df 81bc
000000a0: 646c fabd 38c5 4cbd 612f 8cbd 912c 9dbc
000000b0: 069a 89bd 513f 00be 059d 04bd c9dd 25bc
000000c0: 1ccf 86bd 0f74 4abd cf27 14bd 8583 19bd
000000d0: 9bcd 9eba dd71 0b3d 58d4 373d 3e6c 3ebc
000000e0: 6ef8 babc 7ca0 0fbd 3541 5ebd 7cc0 2a3c
000000f0: 5207 ffbc 077a 97bb 0c59 9dbd 8a77 cbbd
00000100: 6ba9 fdbc b54c 9ebc fac6 94bd 9ac8 17bd
00000110: d5c7 0abe 2e0b a3bd 1034 02be ddba 17bd
00000120: d0d6 74bd ad4f 0e3b 9b43 803c 54c0 09bd
00000130: 77c9 2abc 767e 403c c6f3 1cbd 5ae7 79bc
00000140: 98bc 353d a6a4 fe3b 3406 c2bd a2cf e7ba
00000150: 54c4 d53c 6ee7 893c 1d1d 19bd 723d c4bc
00000160: 573c 2c3d b5ca 0ebd 9439 d9bd 2e9c eabc
00000170: d354 4abd 23d1 1bbe e40c 04be 7a06 aebd
00000180: ab12 6ebd 6957 01be 0b28 3ebe 5200 1fbe
00000190: ac47 8fbd 0cfa 75bc b251 af3d 8570 1c3d
000001a0: 32e0 c73d 5ae9 cdbc ca6f 39bc 3635 18bc
000001b0: 3317 543b 2858 32bd a943 193d 18ab 97bc
000001c0: 91f6 693d 4aa7 e3bc cfe0 653c 9e71 983d
000001d0: 6fed 263d 09eb 8b3c f8a9 47bd bdb8 3b3d
000001e0: c3ad ba3c eca4 c6bd 4ca1 d2bd 9c0e cbba
000001f0: 619a a2ba dee6 873d 995f b6bd 0bb9 e5bd
00000200: b6c2 adbd 2b36 7abd 83d7 19bd 158a 083b
00000210: 3044 a8bd 02b2 05bd c9d7 42bd 2902 473d
00000220: 9b29 143d c493 463d e9fa 9c3d 7097 48bc
00000230: b7e3 93bd 88b3 dbbc 1ca0 b83d 13e2 8b3d
00000240: 5deb 4c3d 35eb adbc f962 0f3e ac60 133e
00000250: 6edf 1e3d 9472 203c 950b 2dbd 7526 be3b
00000260: 4e02 babc d075 d23c 86b6 fabd cd33 1dbd
00000270: ee63 94bd 1079 aabd f4d3 00be 83c7 16be
00000280: 2609 2ebe dbd5 24be d073 d4bd 9011 cabd
00000290: 5e09 1cbd 1c95 f2bb 993a 9fbc a345 91bd
000002a0: 4269 11bd 0cde 503d 3d03 233d a51d 393c
000002b0: b97d 53bd 63cf 99bd 4ff9 043d b17f 8d3d
000002c0: 4ddf 2a3d 50ca 0bbd 2097 fdbb 07bf 3c3c
000002d0: dbae 513c 75fb 4a3b 962f 3c3d 3b34 0a3b
000002e0: 6210 353d 7b7a ecbb 462c 2bbe 8ad7 8abe
000002f0: 4da2 6abe 2443 b6bd f9ff f2bd de5e ecbd
00000300: ec51 8bbd 07ac 87bd f81d 33bd fd38 ea3a
00000310: 9a7f fb3b da04 b8bb 7ece 5c3d eaf0 42bc
00000320: 520e 99bd de01 29bd f172 783d 0a32 4bbd
00000330: 8b28 c83d bcd8 b1b9 c089 653d 3e24 843a
00000340: 5244 d13d 2286 583d 730a 1c3e 9b0b 2bbd
00000350: 6591 023d 595f 14bd b1b1 f2bd 3776 8abe
00000360: 551d 87be 8907 fdbd 9df2 10be af44 e2bd
00000370: 00a6 8ebd 8b7d 73bd 4018 39bc fe70 24bd
00000380: ddcc d13b bc73 e73c 9a6f 823c 818f bd3c
00000390: 0044 82bd a468 87bc 4c68 b0bd da55 93bd
000003a0: 52b7 02bc 5c3d 88bc 1b6b 2dbd 3634 423d
000003b0: 34fc 073c 0374 6f3d fd4d c93d 9bbf ea3c
000003c0: dff3 7dbc e59c 84bc 5f30 55bd a0c6 54bd
000003d0: 938c 20be 0bf4 0ebe b46e 7cbe 0866 f1bd
000003e0: 289c 97bd 9a15 cdbd 24be a9bd ff1e 2f3c
000003f0: e972 843d f948 953b 38f4 be3d f8e7 2b3d

predictor/l2/W f4 [200, 200]
0.0005763305 0.0033887723 0.02243606 -0.11365196 -0.09876457 0.09098565 -0.08719452 -0.07181259
0.13342278 -0.040247787 0.027608417 -0.23400277 -0.00050587626 -0.038042553 -0.015602676 -0.0060500447
0.015463029 -0.0046636476 0.08814477 -0.2278188 -0.017266303 -0.13107629 -0.24708636 0.09045656
0.051644135 0.054136917 -0.2181559 0.020796591 0.20786633 0.09125829 0.0877466 0.21689571
-0.007834693 -0.09279158 -0.11826894 0.0008312604 0.1418745 -0.024975605 0.24773613 0.02821819
0.029014455 0.04435087 0.008489862 -0.0030105268 0.033251982 -0.16818078 -0.012908897 0.14022511
0.015199585 0.16182888 0.11241423 0.105503134 0.07764195 -0.0033793107 0.12388963 -0.014810659
0.05558739 0.01635642 0.01015946 -0.092363834 -0.08654131 0.17276314 0.43297428 0.032857735
-0.034172475 0.1501118 0.09650435 0.21871692 0.05608974 -0.051000994 -0.11804042 -0.14378262
0.16443737 -0.016553344 -0.13403982 -0.0062836474 -0.10151818 -0.046278056 -0.07141025 0.104227476
0.004543169 -0.09858727 -0.15455106 0.031611037 -0.0065637217 0.04102952 -0.07546485 0.043687407
-0.11181985 0.10846245 -0.01820223 0.15460572 0.14723739 0.14422314 0.01662097 0.038815018
0.17153007 0.18685728 -0.11683127 -0.16135612 -0.039192766 -0.050949585 -0.07554769 0.02797465
0.003938213 -0.13915597 -0.104046665 -0.11823311 -0.067536704 0.06824866 0.29967058 -0.10673468
-0.03263446 0.033086445 -0.07288071 -0.043037526 0.109765515 0.06297157 -0.35231742 -0.03496293
0.014455488 -0.059056584 0.17242928 -0.12600073 0.017952707 -0.003573505 0.1757612 0.103147864
0.33989227 0.073577486 -0.018939631 -0.080832995 0.110769294 0.11649961 -0.26874238 0.023756748
-0.3040131 0.15780742 -0.124722354 -0.019201973 -0.078931205 -0.06908763 0.072764695 0.09219039
0.23514195 -0.20731334 -0.16715378 0.13383292 0.05947062 0.10850873 -0.020570934 0.043356635
-0.033383463 0.10306336 -0.056433562 -0.080850884 0.02016873 0.19477324 -0.06456915 0.054850005
-0.18933804 -0.123366326 0.029710064 0.09919425 0.33232832 0.117557906 -0.12923908 -0.0036770662
-0.10427827 0.17278217 0.056965973 0.21258004 0.13695218 -0.14304593 0.0910745 -0.1581566
-0.042856824 -0.12070187 0.045560293 -0.026507638 0.047887426 -0.04448804 -0.13723797 0.10828203
0.07207674 -0.053058434 -0.09371044 -0.014694667 -0.016040668 -0.10515286 -0.06746428 -0.089335024
0.12737633 0.11746743 0.0068615433 -0.028948538 -0.0056579765 0.04834698 -0.12772112 0.036972076
0.045507073 0.079439335 0.25269595 0.05027208 0.012255605 -0.02084351 0.009165557 0.101662844
-0.12328097 0.050449207 -0.09956183 -0.011914765 -0.049584094 0.10425205 0.070337795 -0.08173838
-0.06672221 -0.1813033 0.008105973 0.16365384 0.016382586 0.013578856 -0.034570158 -0.05678387
0.1533693 -0.06980872 -0.09722009 0.0033700012 -0.11570041 0.1455881 0.20911252 0.07222908
0.06478444 0.01094117 -0.18236017 0.12064174 0.013721928 0.053024206 0.049897626 -0.057431243
-0.12754016 0.13304006 0.19232841 -0.007118589 0.026488323 -0.06130859 0.06323741 0.19051428
0.06778059 -0.049841072 0.0074293283 -0.010668171 0.09655703 -0.10713222 -0.10190698 -0.059937146
00000000: e314 173a 2a16 5e3b d4cb b73c 5cc2 e8bd
00000010: 1445 cabd af56 ba3d 0a93 b2bd 7b12 93bd
00000020: fb9f 083e ddda 24bd 0c2b e23c 6c9e 6fbe
00000030: c89c 04ba 82d2 1bbd 5ea2 7fbc 743f c6bb
00000040: a558 7d3c 83d1 98bb 3f85 b43d 5549 69be
00000050: 1072 8dbc dd38 06be 3504 7dbe 4a41 b93d
00000060: cd88 533d acbe 5d3d 4364 5fbe 9d5d aa3c
00000070: e9da 543e a0e5 ba3d 7db4 b33d e919 5e3e
00000080: 165d 00bc 8309 bebd fc36 f2bd f1e8 593a
00000090: 8d47 113e a499 ccbc 8aae 7d3e d529 e73c
000000a0: b9af ed3c 42a9 353d 1019 0b3c 424c 45bb
000000b0: 3b33 083d 9537 2cbe d77f 53bc 2c97 0f3e
000000c0: ae07 793c 78b6 253e 6f39 e63d 0712 d83d
000000d0: be02 9f3d 6d77 5dbb d9b9 fd3d 68a8 72bc
000000e0: 9aaf 633d e6fd 853c dd73 263c 4029 bdbd
000000f0: 923c b1bd d2e8 303e ceae dd3e d595 063d
00000100: 70f8 0bbd e8b6 193e 13a4 c53d 54f7 5f3e
00000110: 5bbe 653d 6be6 50bd 2dbf f1bd c03b 13be
00000120: 4562 283e e19a 87bc bc41 09be 0ee7 cdbb
00000130: c3e8 cfbd 0f8e 3dbd 8a3f 92bd 3775 d53d
00000140: ddde 943b 1fe8 c9bd a242 1ebe 937a 013d
00000150: 7d14 d7bb 920e 283d 518d 9abd 91f1 323d
00000160: ce01 e5bd 9021 de3d d81c 95bc f650 1e3e
00000170: 66c5 163e 3baf 133e b328 883c 7ffc 1e3d
00000180: 94a5 2f3e 8457 3f3e 3c45 efbd 8a3a 25be
00000190: 9888 20bd 83b0 50bd bfb8 9abd 182b e53c
000001a0: 200c 813b e77e 0ebe 6b16 d5bd 3324 f2bd
000001b0: af50 8abd f4c5 8b3d 6c6e 993e b697 dabd
000001c0: b6ab 05bd a785 073d 7b42 95bd 1e48 30bd
000001d0: becc e03d 3df7 803d f362 b4be 4a35 0fbd
000001e0: b6d6 6c3c 51e5 71bd 4d91 303e 5606 01be
000001f0: 8e11 933c 7731 6abb befa 333e 303f d33d
00000200: 5c06 ae3e cbaf 963d 4927 9bbc c58b a5bd
00000210: 03db e23d 5997 ee3d 9a98 89be 839d c23c
00000220: 9ba7 9bbe 4598 213e 6f6e ffbd 754d 9dbc
00000230: afa6 a1bd d17d 8dbd a805 953d 51ce bc3d
00000240: 0dc9 703e f349 54be 5c2a 2bbe 7f0b 093e
00000250: 7797 733d d339 de3d 6084 a8bc ba96 313d
00000260: 19bd 08bd e212 d33d e126 67bd 2695 a5bd
00000270: e438 a53c a372 473e d53c 84bd 66aa 603d
00000280: d5e1 41be 7ca7 fcbd 8562 f33c 5b26 cb3d
00000290: f026 aa3e 33c2 f03d 4057 04be effa 70bb
000002a0: d88f d5bd cfed 303e 2755 693d 95ae 593e
000002b0: 313d 0c3e a27a 12be 4485 ba3d cef3 21be
000002c0: a38a 2fbd 8b32 f7bd 6e9d 3a3d 8c26 d9bc
000002d0: 9b25 443d 1739 36bd 1c88 0cbe f8c2 dd3d
000002e0: f89c 933d cd53 59bd 42eb bfbd e7c1 70bc
000002f0: b867 83bc 625a d7bd b62a 8abd 48f5 b6bd
00000300: f16e 023e c492 f03d ccd6 e03b 7c25 edbc
00000310: 8c66 b9bb 7c07 463d 53c9 02be 0870 173d
00000320: a065 3a3d 17b1 a23d 5d61 813e 19ea 4d3d
00000330: bccb 483c 02c0 aabc 222b 163c 9c34 d03d
00000340: bc7a fcbd d4a3 4e3d 13e7 cbbd 2636 43bc
00000350: b118 4bbd 1982 d53d 430d 903d 7466 a7bd
00000360: a7a5 88bd 93a7 39be eace 043c df94 273e
00000370: c634 863c da79 5e3c 7099 0dbd 3496 68bd
00000380: d70c 1d3e e0f7 8ebd 541b c7bd 3ddb 5c3b
00000390: 56f4 ecbd 0c15 153e 9821 563e d7ec 933d
000003a0: b4ad 843d 9842 333c a0bc 3abe 0413 f73d
000003b0: f0d1 603c e92f 593d 7461 4c3d 063d 6bbd
000003c0: e399 02be a73b 083e bdf1 443e 0d43 e9bb
000003d0: 0afe d83c b71e 7bbd 9d82 813d 2d16 433e
000003e0: 8dd0 8a3d 2726 4cbd b971 f33b 8dc9 2ebc
000003f0: b1bf c53d 2368 dbbd 9bb4 d0bd a780 75bd
